…
2024-12-12 16:03:16,904 WARNING: Params decomp.sharpening.weight will not be optimized.
2024-12-12 16:03:16,904 WARNING: Params decomp.sharpening.bias will not be optimized.
2024-12-12 16:03:16,904 WARNING: Params decomp.smooth_q1.conv.weight will not be optimized.
2024-12-12 16:03:16,904 WARNING: Params decomp.smooth_q1.conv.bias will not be optimized.
2024-12-12 16:03:16,904 WARNING: Params decomp.smooth_q2.conv.weight will not be optimized.
2024-12-12 16:03:16,904 WARNING: Params decomp.smooth_q2.conv.bias will not be optimized.
DecompDualBranch2DD(
  (decomp): Decomp(
    (dwt): DWT()
    (iwt): IWT()
    (conv_in): Conv2d(32, 32, kernel_size=(3, 3), stride=(1, 1), padding=(1, 1))
    (branch_q1): Sequential(
      (0): Conv2d(32, 32, kernel_size=(3, 3), stride=(1, 1), padding=(1, 1))
      (1): ReLU(inplace=True)
      (2): Conv2d(32, 32, kernel_size=(3, 3), stride=(1, 1), padding=(1, 1))
    )
    (branch_q2): Sequential(
      (0): Conv2d(32, 32, kernel_size=(3, 3), stride=(1, 1), padding=(1, 1))
      (1): ReLU(inplace=True)
      (2): Conv2d(32, 32, kernel_size=(3, 3), stride=(1, 1), padding=(1, 1))
    )
    (cross_attn): SymmetricCrossAttention(
      (q1_proj): Conv2d(32, 32, kernel_size=(1, 1), stride=(1, 1))
      (k2_proj): Conv2d(32, 32, kernel_size=(1, 1), stride=(1, 1))
      (v2_proj): Conv2d(32, 32, kernel_size=(1, 1), stride=(1, 1))
      (q2_proj): Conv2d(32, 32, kernel_size=(1, 1), stride=(1, 1))
      (k1_proj): Conv2d(32, 32, kernel_size=(1, 1), stride=(1, 1))
      (v1_proj): Conv2d(32, 32, kernel_size=(1, 1), stride=(1, 1))
      (out1): Conv2d(32, 32, kernel_size=(1, 1), stride=(1, 1))
      (out2): Conv2d(32, 32, kernel_size=(1, 1), stride=(1, 1))
    )
    (fuse): Conv2d(64, 32, kernel_size=(1, 1), stride=(1, 1))
    (conv_out): Conv2d(32, 32, kernel_size=(3, 3), stride=(1, 1), padding=(1, 1))
    (sharpening): Conv2d(32, 32, kernel_size=(3, 3), stride=(1, 1), padding=(1, 1))
    (smooth_q1): PostSmooth(
      (conv): Conv2d(4, 4, kernel_size=(3, 3), stride=(1, 1), padding=(1, 1), groups=4)
      (relu): ReLU(inplace=True)
    )
    (smooth_q2): PostSmooth(
      (conv): Conv2d(4, 4, kernel_size=(3, 3), stride=(1, 1), padding=(1, 1), groups=4)
      (relu): ReLU(inplace=True)
    )
  )
  (first_conv_Q1): Conv2d(8, 40, kernel_size=(3, 3), stride=(1, 1), padding=(1, 1))
  (encoders_Q1): ModuleList(
    (0): Sequential(
      (0): VSSBlock(
        (norm): LayerNorm2d((40,), eps=1e-05, elementwise_affine=True)
        (op): SS2D(
          (out_norm): LayerNorm2d((40,), eps=1e-05, elementwise_affine=True)
          (in_proj): Linear2d(in_features=40, out_features=40, bias=False)
          (act): SiLU()
          (conv2d): Conv2d(40, 40, kernel_size=(3, 3), stride=(1, 1), padding=(1, 1), groups=40, bias=False)
          (out_act): Identity()
          (out_proj): Linear2d(in_features=40, out_features=40, bias=False)
          (dropout): Identity()
        )
        (drop_path): timm.DropPath(0)
        (norm2): LayerNorm2d((40,), eps=1e-05, elementwise_affine=True)
        (mlp): gdMlp(
          (project_in): Conv2d(40, 320, kernel_size=(1, 1), stride=(1, 1))
          (dwconv): Conv2d(320, 320, kernel_size=(3, 3), stride=(1, 1), padding=(1, 1), groups=320)
          (project_out): Conv2d(160, 40, kernel_size=(1, 1), stride=(1, 1))
          (act): GELU(approximate='none')
        )
      )
      (1): VSSBlock(
        (norm): LayerNorm2d((40,), eps=1e-05, elementwise_affine=True)
        (op): SS2D(
          (out_norm): LayerNorm2d((40,), eps=1e-05, elementwise_affine=True)
          (in_proj): Linear2d(in_features=40, out_features=40, bias=False)
          (act): SiLU()
          (conv2d): Conv2d(40, 40, kernel_size=(3, 3), stride=(1, 1), padding=(1, 1), groups=40, bias=False)
          (out_act): Identity()
          (out_proj): Linear2d(in_features=40, out_features=40, bias=False)
          (dropout): Identity()
        )
        (drop_path): timm.DropPath(0)
        (norm2): LayerNorm2d((40,), eps=1e-05, elementwise_affine=True)
        (mlp): gdMlp(
          (project_in): Conv2d(40, 320, kernel_size=(1, 1), stride=(1, 1))
          (dwconv): Conv2d(320, 320, kernel_size=(3, 3), stride=(1, 1), padding=(1, 1), groups=320)
          (project_out): Conv2d(160, 40, kernel_size=(1, 1), stride=(1, 1))
          (act): GELU(approximate='none')
        )
      )
    )
    (1): Sequential(
      (0): VSSBlock(
        (norm): LayerNorm2d((80,), eps=1e-05, elementwise_affine=True)
        (op): SS2D(
          (out_norm): LayerNorm2d((80,), eps=1e-05, elementwise_affine=True)
          (in_proj): Linear2d(in_features=80, out_features=80, bias=False)
          (act): SiLU()
          (conv2d): Conv2d(80, 80, kernel_size=(3, 3), stride=(1, 1), padding=(1, 1), groups=80, bias=False)
          (out_act): Identity()
          (out_proj): Linear2d(in_features=80, out_features=80, bias=False)
          (dropout): Identity()
        )
        (drop_path): timm.DropPath(0)
        (norm2): LayerNorm2d((80,), eps=1e-05, elementwise_affine=True)
        (mlp): gdMlp(
          (project_in): Conv2d(80, 640, kernel_size=(1, 1), stride=(1, 1))
          (dwconv): Conv2d(640, 640, kernel_size=(3, 3), stride=(1, 1), padding=(1, 1), groups=640)
          (project_out): Conv2d(320, 80, kernel_size=(1, 1), stride=(1, 1))
          (act): GELU(approximate='none')
        )
      )
      (1): VSSBlock(
        (norm): LayerNorm2d((80,), eps=1e-05, elementwise_affine=True)
        (op): SS2D(
          (out_norm): LayerNorm2d((80,), eps=1e-05, elementwise_affine=True)
          (in_proj): Linear2d(in_features=80, out_features=80, bias=False)
          (act): SiLU()
          (conv2d): Conv2d(80, 80, kernel_size=(3, 3), stride=(1, 1), padding=(1, 1), groups=80, bias=False)
          (out_act): Identity()
          (out_proj): Linear2d(in_features=80, out_features=80, bias=False)
          (dropout): Identity()
        )
        (drop_path): timm.DropPath(0)
        (norm2): LayerNorm2d((80,), eps=1e-05, elementwise_affine=True)
        (mlp): gdMlp(
          (project_in): Conv2d(80, 640, kernel_size=(1, 1), stride=(1, 1))
          (dwconv): Conv2d(640, 640, kernel_size=(3, 3), stride=(1, 1), padding=(1, 1), groups=640)
          (project_out): Conv2d(320, 80, kernel_size=(1, 1), stride=(1, 1))
          (act): GELU(approximate='none')
        )
      )
    )
  )
  (down_layers_Q1): ModuleList(
    (0): Conv2d(40, 80, kernel_size=(4, 4), stride=(2, 2), padding=(1, 1), bias=False)
    (1): Conv2d(80, 160, kernel_size=(4, 4), stride=(2, 2), padding=(1, 1), bias=False)
  )
  (first_conv_Q2): Conv2d(8, 40, kernel_size=(3, 3), stride=(1, 1), padding=(1, 1))
  (encoders_Q2): ModuleList(
    (0): Sequential(
      (0): VSSBlock(
        (norm): LayerNorm2d((40,), eps=1e-05, elementwise_affine=True)
        (op): SS2D(
          (out_norm): LayerNorm2d((40,), eps=1e-05, elementwise_affine=True)
          (in_proj): Linear2d(in_features=40, out_features=40, bias=False)
          (act): SiLU()
          (conv2d): Conv2d(40, 40, kernel_size=(3, 3), stride=(1, 1), padding=(1, 1), groups=40, bias=False)
          (out_act): Identity()
          (out_proj): Linear2d(in_features=40, out_features=40, bias=False)
          (dropout): Identity()
        )
        (drop_path): timm.DropPath(0)
        (norm2): LayerNorm2d((40,), eps=1e-05, elementwise_affine=True)
        (mlp): gdMlp(
          (project_in): Conv2d(40, 320, kernel_size=(1, 1), stride=(1, 1))
          (dwconv): Conv2d(320, 320, kernel_size=(3, 3), stride=(1, 1), padding=(1, 1), groups=320)
          (project_out): Conv2d(160, 40, kernel_size=(1, 1), stride=(1, 1))
          (act): GELU(approximate='none')
        )
      )
      (1): VSSBlock(
        (norm): LayerNorm2d((40,), eps=1e-05, elementwise_affine=True)
        (op): SS2D(
          (out_norm): LayerNorm2d((40,), eps=1e-05, elementwise_affine=True)
          (in_proj): Linear2d(in_features=40, out_features=40, bias=False)
          (act): SiLU()
          (conv2d): Conv2d(40, 40, kernel_size=(3, 3), stride=(1, 1), padding=(1, 1), groups=40, bias=False)
          (out_act): Identity()
          (out_proj): Linear2d(in_features=40, out_features=40, bias=False)
          (dropout): Identity()
        )
        (drop_path): timm.DropPath(0)
        (norm2): LayerNorm2d((40,), eps=1e-05, elementwise_affine=True)
        (mlp): gdMlp(
          (project_in): Conv2d(40, 320, kernel_size=(1, 1), stride=(1, 1))
          (dwconv): Conv2d(320, 320, kernel_size=(3, 3), stride=(1, 1), padding=(1, 1), groups=320)
          (project_out): Conv2d(160, 40, kernel_size=(1, 1), stride=(1, 1))
          (act): GELU(approximate='none')
        )
      )
    )
    (1): Sequential(
      (0): VSSBlock(
        (norm): LayerNorm2d((80,), eps=1e-05, elementwise_affine=True)
        (op): SS2D(
          (out_norm): LayerNorm2d((80,), eps=1e-05, elementwise_affine=True)
          (in_proj): Linear2d(in_features=80, out_features=80, bias=False)
          (act): SiLU()
          (conv2d): Conv2d(80, 80, kernel_size=(3, 3), stride=(1, 1), padding=(1, 1), groups=80, bias=False)
          (out_act): Identity()
          (out_proj): Linear2d(in_features=80, out_features=80, bias=False)
          (dropout): Identity()
        )
        (drop_path): timm.DropPath(0)
        (norm2): LayerNorm2d((80,), eps=1e-05, elementwise_affine=True)
        (mlp): gdMlp(
          (project_in): Conv2d(80, 640, kernel_size=(1, 1), stride=(1, 1))
          (dwconv): Conv2d(640, 640, kernel_size=(3, 3), stride=(1, 1), padding=(1, 1), groups=640)
          (project_out): Conv2d(320, 80, kernel_size=(1, 1), stride=(1, 1))
          (act): GELU(approximate='none')
        )
      )
      (1): VSSBlock(
        (norm): LayerNorm2d((80,), eps=1e-05, elementwise_affine=True)
        (op): SS2D(
          (out_norm): LayerNorm2d((80,), eps=1e-05, elementwise_affine=True)
          (in_proj): Linear2d(in_features=80, out_features=80, bias=False)
          (act): SiLU()
          (conv2d): Conv2d(80, 80, kernel_size=(3, 3), stride=(1, 1), padding=(1, 1), groups=80, bias=False)
          (out_act): Identity()
          (out_proj): Linear2d(in_features=80, out_features=80, bias=False)
          (dropout): Identity()
        )
        (drop_path): timm.DropPath(0)
        (norm2): LayerNorm2d((80,), eps=1e-05, elementwise_affine=True)
        (mlp): gdMlp(
          (project_in): Conv2d(80, 640, kernel_size=(1, 1), stride=(1, 1))
          (dwconv): Conv2d(640, 640, kernel_size=(3, 3), stride=(1, 1), padding=(1, 1), groups=640)
          (project_out): Conv2d(320, 80, kernel_size=(1, 1), stride=(1, 1))
          (act): GELU(approximate='none')
        )
      )
    )
  )
  (down_layers_Q2): ModuleList(
    (0): Conv2d(40, 80, kernel_size=(4, 4), stride=(2, 2), padding=(1, 1), bias=False)
    (1): Conv2d(80, 160, kernel_size=(4, 4), stride=(2, 2), padding=(1, 1), bias=False)
  )
  (bottleneck_fuse): Conv2d(320, 160, kernel_size=(1, 1), stride=(1, 1), bias=False)
  (bottleneck_block): Sequential(
    (0): VSSBlock(
      (norm): LayerNorm2d((160,), eps=1e-05, elementwise_affine=True)
      (op): SS2D(
        (out_norm): LayerNorm2d((160,), eps=1e-05, elementwise_affine=True)
        (in_proj): Linear2d(in_features=160, out_features=160, bias=False)
        (act): SiLU()
        (conv2d): Conv2d(160, 160, kernel_size=(3, 3), stride=(1, 1), padding=(1, 1), groups=160, bias=False)
        (out_act): Identity()
        (out_proj): Linear2d(in_features=160, out_features=160, bias=False)
        (dropout): Identity()
      )
      (drop_path): timm.DropPath(0)
      (norm2): LayerNorm2d((160,), eps=1e-05, elementwise_affine=True)
      (mlp): gdMlp(
        (project_in): Conv2d(160, 1280, kernel_size=(1, 1), stride=(1, 1))
        (dwconv): Conv2d(1280, 1280, kernel_size=(3, 3), stride=(1, 1), padding=(1, 1), groups=1280)
        (project_out): Conv2d(640, 160, kernel_size=(1, 1), stride=(1, 1))
        (act): GELU(approximate='none')
      )
    )
    (1): VSSBlock(
      (norm): LayerNorm2d((160,), eps=1e-05, elementwise_affine=True)
      (op): SS2D(
        (out_norm): LayerNorm2d((160,), eps=1e-05, elementwise_affine=True)
        (in_proj): Linear2d(in_features=160, out_features=160, bias=False)
        (act): SiLU()
        (conv2d): Conv2d(160, 160, kernel_size=(3, 3), stride=(1, 1), padding=(1, 1), groups=160, bias=False)
        (out_act): Identity()
        (out_proj): Linear2d(in_features=160, out_features=160, bias=False)
        (dropout): Identity()
      )
      (drop_path): timm.DropPath(0)
      (norm2): LayerNorm2d((160,), eps=1e-05, elementwise_affine=True)
      (mlp): gdMlp(
        (project_in): Conv2d(160, 1280, kernel_size=(1, 1), stride=(1, 1))
        (dwconv): Conv2d(1280, 1280, kernel_size=(3, 3), stride=(1, 1), padding=(1, 1), groups=1280)
        (project_out): Conv2d(640, 160, kernel_size=(1, 1), stride=(1, 1))
        (act): GELU(approximate='none')
      )
    )
  )
  (bottleneck_to_Q1): Conv2d(160, 160, kernel_size=(1, 1), stride=(1, 1), bias=False)
  (bottleneck_to_Q2): Conv2d(160, 160, kernel_size=(1, 1), stride=(1, 1), bias=False)
  (decoders_Q1): ModuleList(
    (0): ModuleDict(
      (up): ConvTranspose2d(160, 80, kernel_size=(2, 2), stride=(2, 2))
      (fuse): Conv2d(160, 80, kernel_size=(1, 1), stride=(1, 1), bias=False)
      (block): Sequential(
        (0): VSSBlock(
          (norm): LayerNorm2d((80,), eps=1e-05, elementwise_affine=True)
          (op): SS2D(
            (out_norm): LayerNorm2d((80,), eps=1e-05, elementwise_affine=True)
            (in_proj): Linear2d(in_features=80, out_features=80, bias=False)
            (act): SiLU()
            (conv2d): Conv2d(80, 80, kernel_size=(3, 3), stride=(1, 1), padding=(1, 1), groups=80, bias=False)
            (out_act): Identity()
            (out_proj): Linear2d(in_features=80, out_features=80, bias=False)
            (dropout): Identity()
          )
          (drop_path): timm.DropPath(0)
          (norm2): LayerNorm2d((80,), eps=1e-05, elementwise_affine=True)
          (mlp): gdMlp(
            (project_in): Conv2d(80, 640, kernel_size=(1, 1), stride=(1, 1))
            (dwconv): Conv2d(640, 640, kernel_size=(3, 3), stride=(1, 1), padding=(1, 1), groups=640)
            (project_out): Conv2d(320, 80, kernel_size=(1, 1), stride=(1, 1))
            (act): GELU(approximate='none')
          )
        )
        (1): VSSBlock(
          (norm): LayerNorm2d((80,), eps=1e-05, elementwise_affine=True)
          (op): SS2D(
            (out_norm): LayerNorm2d((80,), eps=1e-05, elementwise_affine=True)
            (in_proj): Linear2d(in_features=80, out_features=80, bias=False)
            (act): SiLU()
            (conv2d): Conv2d(80, 80, kernel_size=(3, 3), stride=(1, 1), padding=(1, 1), groups=80, bias=False)
            (out_act): Identity()
            (out_proj): Linear2d(in_features=80, out_features=80, bias=False)
            (dropout): Identity()
          )
          (drop_path): timm.DropPath(0)
          (norm2): LayerNorm2d((80,), eps=1e-05, elementwise_affine=True)
          (mlp): gdMlp(
            (project_in): Conv2d(80, 640, kernel_size=(1, 1), stride=(1, 1))
            (dwconv): Conv2d(640, 640, kernel_size=(3, 3), stride=(1, 1), padding=(1, 1), groups=640)
            (project_out): Conv2d(320, 80, kernel_size=(1, 1), stride=(1, 1))
            (act): GELU(approximate='none')
          )
        )
      )
    )
    (1): ModuleDict(
      (up): ConvTranspose2d(80, 40, kernel_size=(2, 2), stride=(2, 2))
      (fuse): Conv2d(80, 40, kernel_size=(1, 1), stride=(1, 1), bias=False)
      (block): Sequential(
        (0): VSSBlock(
          (norm): LayerNorm2d((40,), eps=1e-05, elementwise_affine=True)
          (op): SS2D(
            (out_norm): LayerNorm2d((40,), eps=1e-05, elementwise_affine=True)
            (in_proj): Linear2d(in_features=40, out_features=40, bias=False)
            (act): SiLU()
            (conv2d): Conv2d(40, 40, kernel_size=(3, 3), stride=(1, 1), padding=(1, 1), groups=40, bias=False)
            (out_act): Identity()
            (out_proj): Linear2d(in_features=40, out_features=40, bias=False)
            (dropout): Identity()
          )
          (drop_path): timm.DropPath(0)
          (norm2): LayerNorm2d((40,), eps=1e-05, elementwise_affine=True)
          (mlp): gdMlp(
            (project_in): Conv2d(40, 320, kernel_size=(1, 1), stride=(1, 1))
            (dwconv): Conv2d(320, 320, kernel_size=(3, 3), stride=(1, 1), padding=(1, 1), groups=320)
            (project_out): Conv2d(160, 40, kernel_size=(1, 1), stride=(1, 1))
            (act): GELU(approximate='none')
          )
        )
        (1): VSSBlock(
          (norm): LayerNorm2d((40,), eps=1e-05, elementwise_affine=True)
          (op): SS2D(
            (out_norm): LayerNorm2d((40,), eps=1e-05, elementwise_affine=True)
            (in_proj): Linear2d(in_features=40, out_features=40, bias=False)
            (act): SiLU()
            (conv2d): Conv2d(40, 40, kernel_size=(3, 3), stride=(1, 1), padding=(1, 1), groups=40, bias=False)
            (out_act): Identity()
            (out_proj): Linear2d(in_features=40, out_features=40, bias=False)
            (dropout): Identity()
          )
          (drop_path): timm.DropPath(0)
          (norm2): LayerNorm2d((40,), eps=1e-05, elementwise_affine=True)
          (mlp): gdMlp(
            (project_in): Conv2d(40, 320, kernel_size=(1, 1), stride=(1, 1))
            (dwconv): Conv2d(320, 320, kernel_size=(3, 3), stride=(1, 1), padding=(1, 1), groups=320)
            (project_out): Conv2d(160, 40, kernel_size=(1, 1), stride=(1, 1))
            (act): GELU(approximate='none')
          )
        )
      )
    )
  )
  (proj_Q1): Conv2d(40, 4, kernel_size=(3, 3), stride=(1, 1), padding=(1, 1))
  (decoders_Q2): ModuleList(
    (0): ModuleDict(
      (up): ConvTranspose2d(160, 80, kernel_size=(2, 2), stride=(2, 2))
      (fuse): Conv2d(160, 80, kernel_size=(1, 1), stride=(1, 1), bias=False)
      (block): Sequential(
        (0): VSSBlock(
          (norm): LayerNorm2d((80,), eps=1e-05, elementwise_affine=True)
          (op): SS2D(
            (out_norm): LayerNorm2d((80,), eps=1e-05, elementwise_affine=True)
            (in_proj): Linear2d(in_features=80, out_features=80, bias=False)
            (act): SiLU()
            (conv2d): Conv2d(80, 80, kernel_size=(3, 3), stride=(1, 1), padding=(1, 1), groups=80, bias=False)
            (out_act): Identity()
            (out_proj): Linear2d(in_features=80, out_features=80, bias=False)
            (dropout): Identity()
          )
          (drop_path): timm.DropPath(0)
          (norm2): LayerNorm2d((80,), eps=1e-05, elementwise_affine=True)
          (mlp): gdMlp(
            (project_in): Conv2d(80, 640, kernel_size=(1, 1), stride=(1, 1))
            (dwconv): Conv2d(640, 640, kernel_size=(3, 3), stride=(1, 1), padding=(1, 1), groups=640)
            (project_out): Conv2d(320, 80, kernel_size=(1, 1), stride=(1, 1))
            (act): GELU(approximate='none')
          )
        )
        (1): VSSBlock(
          (norm): LayerNorm2d((80,), eps=1e-05, elementwise_affine=True)
          (op): SS2D(
            (out_norm): LayerNorm2d((80,), eps=1e-05, elementwise_affine=True)
            (in_proj): Linear2d(in_features=80, out_features=80, bias=False)
            (act): SiLU()
            (conv2d): Conv2d(80, 80, kernel_size=(3, 3), stride=(1, 1), padding=(1, 1), groups=80, bias=False)
            (out_act): Identity()
            (out_proj): Linear2d(in_features=80, out_features=80, bias=False)
            (dropout): Identity()
          )
          (drop_path): timm.DropPath(0)
          (norm2): LayerNorm2d((80,), eps=1e-05, elementwise_affine=True)
          (mlp): gdMlp(
            (project_in): Conv2d(80, 640, kernel_size=(1, 1), stride=(1, 1))
            (dwconv): Conv2d(640, 640, kernel_size=(3, 3), stride=(1, 1), padding=(1, 1), groups=640)
            (project_out): Conv2d(320, 80, kernel_size=(1, 1), stride=(1, 1))
            (act): GELU(approximate='none')
          )
        )
      )
    )
    (1): ModuleDict(
      (up): ConvTranspose2d(80, 40, kernel_size=(2, 2), stride=(2, 2))
      (fuse): Conv2d(80, 40, kernel_size=(1, 1), stride=(1, 1), bias=False)
      (block): Sequential(
        (0): VSSBlock(
          (norm): LayerNorm2d((40,), eps=1e-05, elementwise_affine=True)
          (op): SS2D(
            (out_norm): LayerNorm2d((40,), eps=1e-05, elementwise_affine=True)
            (in_proj): Linear2d(in_features=40, out_features=40, bias=False)
            (act): SiLU()
            (conv2d): Conv2d(40, 40, kernel_size=(3, 3), stride=(1, 1), padding=(1, 1), groups=40, bias=False)
            (out_act): Identity()
            (out_proj): Linear2d(in_features=40, out_features=40, bias=False)
            (dropout): Identity()
          )
          (drop_path): timm.DropPath(0)
          (norm2): LayerNorm2d((40,), eps=1e-05, elementwise_affine=True)
          (mlp): gdMlp(
            (project_in): Conv2d(40, 320, kernel_size=(1, 1), stride=(1, 1))
            (dwconv): Conv2d(320, 320, kernel_size=(3, 3), stride=(1, 1), padding=(1, 1), groups=320)
            (project_out): Conv2d(160, 40, kernel_size=(1, 1), stride=(1, 1))
            (act): GELU(approximate='none')
          )
        )
        (1): VSSBlock(
          (norm): LayerNorm2d((40,), eps=1e-05, elementwise_affine=True)
          (op): SS2D(
            (out_norm): LayerNorm2d((40,), eps=1e-05, elementwise_affine=True)
            (in_proj): Linear2d(in_features=40, out_features=40, bias=False)
            (act): SiLU()
            (conv2d): Conv2d(40, 40, kernel_size=(3, 3), stride=(1, 1), padding=(1, 1), groups=40, bias=False)
            (out_act): Identity()
            (out_proj): Linear2d(in_features=40, out_features=40, bias=False)
            (dropout): Identity()
          )
          (drop_path): timm.DropPath(0)
          (norm2): LayerNorm2d((40,), eps=1e-05, elementwise_affine=True)
          (mlp): gdMlp(
            (project_in): Conv2d(40, 320, kernel_size=(1, 1), stride=(1, 1))
            (dwconv): Conv2d(320, 320, kernel_size=(3, 3), stride=(1, 1), padding=(1, 1), groups=320)
            (project_out): Conv2d(160, 40, kernel_size=(1, 1), stride=(1, 1))
            (act): GELU(approximate='none')
          )
        )
      )
    )
  )
  (proj_Q2): Conv2d(40, 4, kernel_size=(3, 3), stride=(1, 1), padding=(1, 1))
  (last_act): Identity()
)
2024-12-12 16:03:17,023 INFO: Start training from epoch: 0, iter: 0
2024-12-12 16:03:51,598 INFO: [Decom..][epoch:  1, iter:     100, lr:(2.000e-04,2.000e-04,)] [eta: 1 day, 1:33:21, time (data): 0.346 (0.009)] l_pix: 1.0855e-01 l_percep: 2.7034e+00 
2024-12-12 16:04:22,936 INFO: [Decom..][epoch:  3, iter:     200, lr:(2.000e-04,2.000e-04,)] [eta: 1 day, 1:49:17, time (data): 0.330 (0.009)] l_pix: 7.7735e-02 l_percep: 2.5271e+00 
…
