…
2024-12-09 19:14:53,091 INFO: Dataset [Dataset_PairedImage_Mask] - TrainSet is built.
2024-12-09 19:14:53,092 INFO: Training statistics:
	Number of train images: 485
	Dataset enlarge ratio: 1
	Batch size per gpu: 8
	World size (gpu number): 1
	Require iter number per epoch: 61
	Total epochs: 4919; iters: 300000.
2024-12-09 19:14:53,093 INFO: Dataset [Dataset_PairedImage_Mask] - ValSet is built.
2024-12-09 19:14:53,093 INFO: Number of val images/folders in ValSet: 15
2024-12-09 19:14:53,164 INFO: Network [TunedModel] is created.
2024-12-09 19:14:54,457 INFO: Loss [L1Loss] is created.
2024-12-09 19:14:55,741 INFO: Loss [PerceptualLoss] is created.
TunedModel(
  (first_conv): Conv2d(6, 40, kernel_size=(3, 3), stride=(1, 1), padding=(1, 1))
  (encoders): ModuleList(
    (0): Sequential(
      (0): VSSBlock(
        (norm): LayerNorm2d((40,), eps=1e-05, elementwise_affine=True)
        (op): SS2D(
          (out_norm): LayerNorm2d((40,), eps=1e-05, elementwise_affine=True)
          (in_proj): Linear2d(in_features=40, out_features=40, bias=False)
          (act): SiLU()
          (conv2d): Conv2d(40, 40, kernel_size=(3, 3), stride=(1, 1), padding=(1, 1), groups=40, bias=False)
          (out_act): Identity()
          (out_proj): Linear2d(in_features=40, out_features=40, bias=False)
          (dropout): Identity()
        )
        (drop_path): timm.DropPath(0)
        (norm2): LayerNorm2d((40,), eps=1e-05, elementwise_affine=True)
        (mlp): gdMlp(
          (project_in): Conv2d(40, 160, kernel_size=(1, 1), stride=(1, 1))
          (dwconv): Conv2d(160, 160, kernel_size=(3, 3), stride=(1, 1), padding=(1, 1), groups=160)
          (project_out): Conv2d(80, 40, kernel_size=(1, 1), stride=(1, 1))
          (act): GELU(approximate='none')
        )
      )
      (1): VSSBlock(
        (norm): LayerNorm2d((40,), eps=1e-05, elementwise_affine=True)
        (op): SS2D(
          (out_norm): LayerNorm2d((40,), eps=1e-05, elementwise_affine=True)
          (in_proj): Linear2d(in_features=40, out_features=40, bias=False)
          (act): SiLU()
          (conv2d): Conv2d(40, 40, kernel_size=(3, 3), stride=(1, 1), padding=(1, 1), groups=40, bias=False)
          (out_act): Identity()
          (out_proj): Linear2d(in_features=40, out_features=40, bias=False)
          (dropout): Identity()
        )
        (drop_path): timm.DropPath(0)
        (norm2): LayerNorm2d((40,), eps=1e-05, elementwise_affine=True)
        (mlp): gdMlp(
          (project_in): Conv2d(40, 160, kernel_size=(1, 1), stride=(1, 1))
          (dwconv): Conv2d(160, 160, kernel_size=(3, 3), stride=(1, 1), padding=(1, 1), groups=160)
          (project_out): Conv2d(80, 40, kernel_size=(1, 1), stride=(1, 1))
          (act): GELU(approximate='none')
        )
      )
    )
    (1): Sequential(
      (0): VSSBlock(
        (norm): LayerNorm2d((80,), eps=1e-05, elementwise_affine=True)
        (op): SS2D(
          (out_norm): LayerNorm2d((80,), eps=1e-05, elementwise_affine=True)
          (in_proj): Linear2d(in_features=80, out_features=80, bias=False)
          (act): SiLU()
          (conv2d): Conv2d(80, 80, kernel_size=(3, 3), stride=(1, 1), padding=(1, 1), groups=80, bias=False)
          (out_act): Identity()
          (out_proj): Linear2d(in_features=80, out_features=80, bias=False)
          (dropout): Identity()
        )
        (drop_path): timm.DropPath(0)
        (norm2): LayerNorm2d((80,), eps=1e-05, elementwise_affine=True)
        (mlp): gdMlp(
          (project_in): Conv2d(80, 320, kernel_size=(1, 1), stride=(1, 1))
          (dwconv): Conv2d(320, 320, kernel_size=(3, 3), stride=(1, 1), padding=(1, 1), groups=320)
          (project_out): Conv2d(160, 80, kernel_size=(1, 1), stride=(1, 1))
          (act): GELU(approximate='none')
        )
      )
      (1): VSSBlock(
        (norm): LayerNorm2d((80,), eps=1e-05, elementwise_affine=True)
        (op): SS2D(
          (out_norm): LayerNorm2d((80,), eps=1e-05, elementwise_affine=True)
          (in_proj): Linear2d(in_features=80, out_features=80, bias=False)
          (act): SiLU()
          (conv2d): Conv2d(80, 80, kernel_size=(3, 3), stride=(1, 1), padding=(1, 1), groups=80, bias=False)
          (out_act): Identity()
          (out_proj): Linear2d(in_features=80, out_features=80, bias=False)
          (dropout): Identity()
        )
        (drop_path): timm.DropPath(0)
        (norm2): LayerNorm2d((80,), eps=1e-05, elementwise_affine=True)
        (mlp): gdMlp(
          (project_in): Conv2d(80, 320, kernel_size=(1, 1), stride=(1, 1))
          (dwconv): Conv2d(320, 320, kernel_size=(3, 3), stride=(1, 1), padding=(1, 1), groups=320)
          (project_out): Conv2d(160, 80, kernel_size=(1, 1), stride=(1, 1))
          (act): GELU(approximate='none')
        )
      )
    )
  )
  (bottleneck): Sequential(
    (0): VSSBlock(
      (norm): LayerNorm2d((160,), eps=1e-05, elementwise_affine=True)
      (op): SS2D(
        (out_norm): LayerNorm2d((160,), eps=1e-05, elementwise_affine=True)
        (in_proj): Linear2d(in_features=160, out_features=160, bias=False)
        (act): SiLU()
        (conv2d): Conv2d(160, 160, kernel_size=(3, 3), stride=(1, 1), padding=(1, 1), groups=160, bias=False)
        (out_act): Identity()
        (out_proj): Linear2d(in_features=160, out_features=160, bias=False)
        (dropout): Identity()
      )
      (drop_path): timm.DropPath(0)
      (norm2): LayerNorm2d((160,), eps=1e-05, elementwise_affine=True)
      (mlp): gdMlp(
        (project_in): Conv2d(160, 640, kernel_size=(1, 1), stride=(1, 1))
        (dwconv): Conv2d(640, 640, kernel_size=(3, 3), stride=(1, 1), padding=(1, 1), groups=640)
        (project_out): Conv2d(320, 160, kernel_size=(1, 1), stride=(1, 1))
        (act): GELU(approximate='none')
      )
    )
    (1): VSSBlock(
      (norm): LayerNorm2d((160,), eps=1e-05, elementwise_affine=True)
      (op): SS2D(
        (out_norm): LayerNorm2d((160,), eps=1e-05, elementwise_affine=True)
        (in_proj): Linear2d(in_features=160, out_features=160, bias=False)
        (act): SiLU()
        (conv2d): Conv2d(160, 160, kernel_size=(3, 3), stride=(1, 1), padding=(1, 1), groups=160, bias=False)
        (out_act): Identity()
        (out_proj): Linear2d(in_features=160, out_features=160, bias=False)
        (dropout): Identity()
      )
      (drop_path): timm.DropPath(0)
      (norm2): LayerNorm2d((160,), eps=1e-05, elementwise_affine=True)
      (mlp): gdMlp(
        (project_in): Conv2d(160, 640, kernel_size=(1, 1), stride=(1, 1))
        (dwconv): Conv2d(640, 640, kernel_size=(3, 3), stride=(1, 1), padding=(1, 1), groups=640)
        (project_out): Conv2d(320, 160, kernel_size=(1, 1), stride=(1, 1))
        (act): GELU(approximate='none')
      )
    )
  )
  (decoders): ModuleList(
    (0): ModuleDict(
      (up): ConvTranspose2d(160, 80, kernel_size=(2, 2), stride=(2, 2))
      (fuse): Conv2d(160, 80, kernel_size=(1, 1), stride=(1, 1), bias=False)
      (block): Sequential(
        (0): VSSBlock(
          (norm): LayerNorm2d((80,), eps=1e-05, elementwise_affine=True)
          (op): SS2D(
            (out_norm): LayerNorm2d((80,), eps=1e-05, elementwise_affine=True)
            (in_proj): Linear2d(in_features=80, out_features=80, bias=False)
            (act): SiLU()
            (conv2d): Conv2d(80, 80, kernel_size=(3, 3), stride=(1, 1), padding=(1, 1), groups=80, bias=False)
            (out_act): Identity()
            (out_proj): Linear2d(in_features=80, out_features=80, bias=False)
            (dropout): Identity()
          )
          (drop_path): timm.DropPath(0)
          (norm2): LayerNorm2d((80,), eps=1e-05, elementwise_affine=True)
          (mlp): gdMlp(
            (project_in): Conv2d(80, 320, kernel_size=(1, 1), stride=(1, 1))
            (dwconv): Conv2d(320, 320, kernel_size=(3, 3), stride=(1, 1), padding=(1, 1), groups=320)
            (project_out): Conv2d(160, 80, kernel_size=(1, 1), stride=(1, 1))
            (act): GELU(approximate='none')
          )
        )
        (1): VSSBlock(
          (norm): LayerNorm2d((80,), eps=1e-05, elementwise_affine=True)
          (op): SS2D(
            (out_norm): LayerNorm2d((80,), eps=1e-05, elementwise_affine=True)
            (in_proj): Linear2d(in_features=80, out_features=80, bias=False)
            (act): SiLU()
            (conv2d): Conv2d(80, 80, kernel_size=(3, 3), stride=(1, 1), padding=(1, 1), groups=80, bias=False)
            (out_act): Identity()
            (out_proj): Linear2d(in_features=80, out_features=80, bias=False)
            (dropout): Identity()
          )
          (drop_path): timm.DropPath(0)
          (norm2): LayerNorm2d((80,), eps=1e-05, elementwise_affine=True)
          (mlp): gdMlp(
            (project_in): Conv2d(80, 320, kernel_size=(1, 1), stride=(1, 1))
            (dwconv): Conv2d(320, 320, kernel_size=(3, 3), stride=(1, 1), padding=(1, 1), groups=320)
            (project_out): Conv2d(160, 80, kernel_size=(1, 1), stride=(1, 1))
            (act): GELU(approximate='none')
          )
        )
      )
    )
    (1): ModuleDict(
      (up): ConvTranspose2d(80, 40, kernel_size=(2, 2), stride=(2, 2))
      (fuse): Conv2d(80, 40, kernel_size=(1, 1), stride=(1, 1), bias=False)
      (block): Sequential(
        (0): VSSBlock(
          (norm): LayerNorm2d((40,), eps=1e-05, elementwise_affine=True)
          (op): SS2D(
            (out_norm): LayerNorm2d((40,), eps=1e-05, elementwise_affine=True)
            (in_proj): Linear2d(in_features=40, out_features=40, bias=False)
            (act): SiLU()
            (conv2d): Conv2d(40, 40, kernel_size=(3, 3), stride=(1, 1), padding=(1, 1), groups=40, bias=False)
            (out_act): Identity()
            (out_proj): Linear2d(in_features=40, out_features=40, bias=False)
            (dropout): Identity()
          )
          (drop_path): timm.DropPath(0)
          (norm2): LayerNorm2d((40,), eps=1e-05, elementwise_affine=True)
          (mlp): gdMlp(
            (project_in): Conv2d(40, 160, kernel_size=(1, 1), stride=(1, 1))
            (dwconv): Conv2d(160, 160, kernel_size=(3, 3), stride=(1, 1), padding=(1, 1), groups=160)
            (project_out): Conv2d(80, 40, kernel_size=(1, 1), stride=(1, 1))
            (act): GELU(approximate='none')
          )
        )
        (1): VSSBlock(
          (norm): LayerNorm2d((40,), eps=1e-05, elementwise_affine=True)
          (op): SS2D(
            (out_norm): LayerNorm2d((40,), eps=1e-05, elementwise_affine=True)
            (in_proj): Linear2d(in_features=40, out_features=40, bias=False)
            (act): SiLU()
            (conv2d): Conv2d(40, 40, kernel_size=(3, 3), stride=(1, 1), padding=(1, 1), groups=40, bias=False)
            (out_act): Identity()
            (out_proj): Linear2d(in_features=40, out_features=40, bias=False)
            (dropout): Identity()
          )
          (drop_path): timm.DropPath(0)
          (norm2): LayerNorm2d((40,), eps=1e-05, elementwise_affine=True)
          (mlp): gdMlp(
            (project_in): Conv2d(40, 160, kernel_size=(1, 1), stride=(1, 1))
            (dwconv): Conv2d(160, 160, kernel_size=(3, 3), stride=(1, 1), padding=(1, 1), groups=160)
            (project_out): Conv2d(80, 40, kernel_size=(1, 1), stride=(1, 1))
            (act): GELU(approximate='none')
          )
        )
      )
    )
  )
  (proj): Conv2d(40, 3, kernel_size=(3, 3), stride=(1, 1), padding=(1, 1))
  (last_act): Identity()
  (down_layers): ModuleList(
    (0): Conv2d(40, 80, kernel_size=(4, 4), stride=(2, 2), padding=(1, 1), bias=False)
    (1): Conv2d(80, 160, kernel_size=(4, 4), stride=(2, 2), padding=(1, 1), bias=False)
  )
  (first_conv2): Conv2d(6, 40, kernel_size=(3, 3), stride=(1, 1), padding=(1, 1))
  (encoders2): ModuleList(
    (0): Sequential(
      (0): VSSBlock(
        (norm): LayerNorm2d((40,), eps=1e-05, elementwise_affine=True)
        (op): SS2D(
          (out_norm): LayerNorm2d((40,), eps=1e-05, elementwise_affine=True)
          (in_proj): Linear2d(in_features=40, out_features=40, bias=False)
          (act): SiLU()
          (conv2d): Conv2d(40, 40, kernel_size=(3, 3), stride=(1, 1), padding=(1, 1), groups=40, bias=False)
          (out_act): Identity()
          (out_proj): Linear2d(in_features=40, out_features=40, bias=False)
          (dropout): Identity()
        )
        (drop_path): timm.DropPath(0)
        (norm2): LayerNorm2d((40,), eps=1e-05, elementwise_affine=True)
        (mlp): gdMlp(
          (project_in): Conv2d(40, 160, kernel_size=(1, 1), stride=(1, 1))
          (dwconv): Conv2d(160, 160, kernel_size=(3, 3), stride=(1, 1), padding=(1, 1), groups=160)
          (project_out): Conv2d(80, 40, kernel_size=(1, 1), stride=(1, 1))
          (act): GELU(approximate='none')
        )
      )
      (1): VSSBlock(
        (norm): LayerNorm2d((40,), eps=1e-05, elementwise_affine=True)
        (op): SS2D(
          (out_norm): LayerNorm2d((40,), eps=1e-05, elementwise_affine=True)
          (in_proj): Linear2d(in_features=40, out_features=40, bias=False)
          (act): SiLU()
          (conv2d): Conv2d(40, 40, kernel_size=(3, 3), stride=(1, 1), padding=(1, 1), groups=40, bias=False)
          (out_act): Identity()
          (out_proj): Linear2d(in_features=40, out_features=40, bias=False)
          (dropout): Identity()
        )
        (drop_path): timm.DropPath(0)
        (norm2): LayerNorm2d((40,), eps=1e-05, elementwise_affine=True)
        (mlp): gdMlp(
          (project_in): Conv2d(40, 160, kernel_size=(1, 1), stride=(1, 1))
          (dwconv): Conv2d(160, 160, kernel_size=(3, 3), stride=(1, 1), padding=(1, 1), groups=160)
          (project_out): Conv2d(80, 40, kernel_size=(1, 1), stride=(1, 1))
          (act): GELU(approximate='none')
        )
      )
    )
    (1): Sequential(
      (0): VSSBlock(
        (norm): LayerNorm2d((80,), eps=1e-05, elementwise_affine=True)
        (op): SS2D(
          (out_norm): LayerNorm2d((80,), eps=1e-05, elementwise_affine=True)
          (in_proj): Linear2d(in_features=80, out_features=80, bias=False)
          (act): SiLU()
          (conv2d): Conv2d(80, 80, kernel_size=(3, 3), stride=(1, 1), padding=(1, 1), groups=80, bias=False)
          (out_act): Identity()
          (out_proj): Linear2d(in_features=80, out_features=80, bias=False)
          (dropout): Identity()
        )
        (drop_path): timm.DropPath(0)
        (norm2): LayerNorm2d((80,), eps=1e-05, elementwise_affine=True)
        (mlp): gdMlp(
          (project_in): Conv2d(80, 320, kernel_size=(1, 1), stride=(1, 1))
          (dwconv): Conv2d(320, 320, kernel_size=(3, 3), stride=(1, 1), padding=(1, 1), groups=320)
          (project_out): Conv2d(160, 80, kernel_size=(1, 1), stride=(1, 1))
          (act): GELU(approximate='none')
        )
      )
      (1): VSSBlock(
        (norm): LayerNorm2d((80,), eps=1e-05, elementwise_affine=True)
        (op): SS2D(
          (out_norm): LayerNorm2d((80,), eps=1e-05, elementwise_affine=True)
          (in_proj): Linear2d(in_features=80, out_features=80, bias=False)
          (act): SiLU()
          (conv2d): Conv2d(80, 80, kernel_size=(3, 3), stride=(1, 1), padding=(1, 1), groups=80, bias=False)
          (out_act): Identity()
          (out_proj): Linear2d(in_features=80, out_features=80, bias=False)
          (dropout): Identity()
        )
        (drop_path): timm.DropPath(0)
        (norm2): LayerNorm2d((80,), eps=1e-05, elementwise_affine=True)
        (mlp): gdMlp(
          (project_in): Conv2d(80, 320, kernel_size=(1, 1), stride=(1, 1))
          (dwconv): Conv2d(320, 320, kernel_size=(3, 3), stride=(1, 1), padding=(1, 1), groups=320)
          (project_out): Conv2d(160, 80, kernel_size=(1, 1), stride=(1, 1))
          (act): GELU(approximate='none')
        )
      )
    )
  )
  (bottleneck2): Sequential(
    (0): VSSBlock(
      (norm): LayerNorm2d((160,), eps=1e-05, elementwise_affine=True)
      (op): SS2D(
        (out_norm): LayerNorm2d((160,), eps=1e-05, elementwise_affine=True)
        (in_proj): Linear2d(in_features=160, out_features=160, bias=False)
        (act): SiLU()
        (conv2d): Conv2d(160, 160, kernel_size=(3, 3), stride=(1, 1), padding=(1, 1), groups=160, bias=False)
        (out_act): Identity()
        (out_proj): Linear2d(in_features=160, out_features=160, bias=False)
        (dropout): Identity()
      )
      (drop_path): timm.DropPath(0)
      (norm2): LayerNorm2d((160,), eps=1e-05, elementwise_affine=True)
      (mlp): gdMlp(
        (project_in): Conv2d(160, 640, kernel_size=(1, 1), stride=(1, 1))
        (dwconv): Conv2d(640, 640, kernel_size=(3, 3), stride=(1, 1), padding=(1, 1), groups=640)
        (project_out): Conv2d(320, 160, kernel_size=(1, 1), stride=(1, 1))
        (act): GELU(approximate='none')
      )
    )
    (1): VSSBlock(
      (norm): LayerNorm2d((160,), eps=1e-05, elementwise_affine=True)
      (op): SS2D(
        (out_norm): LayerNorm2d((160,), eps=1e-05, elementwise_affine=True)
        (in_proj): Linear2d(in_features=160, out_features=160, bias=False)
        (act): SiLU()
        (conv2d): Conv2d(160, 160, kernel_size=(3, 3), stride=(1, 1), padding=(1, 1), groups=160, bias=False)
        (out_act): Identity()
        (out_proj): Linear2d(in_features=160, out_features=160, bias=False)
        (dropout): Identity()
      )
      (drop_path): timm.DropPath(0)
      (norm2): LayerNorm2d((160,), eps=1e-05, elementwise_affine=True)
      (mlp): gdMlp(
        (project_in): Conv2d(160, 640, kernel_size=(1, 1), stride=(1, 1))
        (dwconv): Conv2d(640, 640, kernel_size=(3, 3), stride=(1, 1), padding=(1, 1), groups=640)
        (project_out): Conv2d(320, 160, kernel_size=(1, 1), stride=(1, 1))
        (act): GELU(approximate='none')
      )
    )
  )
  (decoders2): ModuleList(
    (0): ModuleDict(
      (up): ConvTranspose2d(160, 80, kernel_size=(2, 2), stride=(2, 2))
      (fuse): Conv2d(160, 80, kernel_size=(1, 1), stride=(1, 1), bias=False)
      (block): Sequential(
        (0): VSSBlock(
          (norm): LayerNorm2d((80,), eps=1e-05, elementwise_affine=True)
          (op): SS2D(
            (out_norm): LayerNorm2d((80,), eps=1e-05, elementwise_affine=True)
            (in_proj): Linear2d(in_features=80, out_features=80, bias=False)
            (act): SiLU()
            (conv2d): Conv2d(80, 80, kernel_size=(3, 3), stride=(1, 1), padding=(1, 1), groups=80, bias=False)
            (out_act): Identity()
            (out_proj): Linear2d(in_features=80, out_features=80, bias=False)
            (dropout): Identity()
          )
          (drop_path): timm.DropPath(0)
          (norm2): LayerNorm2d((80,), eps=1e-05, elementwise_affine=True)
          (mlp): gdMlp(
            (project_in): Conv2d(80, 320, kernel_size=(1, 1), stride=(1, 1))
            (dwconv): Conv2d(320, 320, kernel_size=(3, 3), stride=(1, 1), padding=(1, 1), groups=320)
            (project_out): Conv2d(160, 80, kernel_size=(1, 1), stride=(1, 1))
            (act): GELU(approximate='none')
          )
        )
        (1): VSSBlock(
          (norm): LayerNorm2d((80,), eps=1e-05, elementwise_affine=True)
          (op): SS2D(
            (out_norm): LayerNorm2d((80,), eps=1e-05, elementwise_affine=True)
            (in_proj): Linear2d(in_features=80, out_features=80, bias=False)
            (act): SiLU()
            (conv2d): Conv2d(80, 80, kernel_size=(3, 3), stride=(1, 1), padding=(1, 1), groups=80, bias=False)
            (out_act): Identity()
            (out_proj): Linear2d(in_features=80, out_features=80, bias=False)
            (dropout): Identity()
          )
          (drop_path): timm.DropPath(0)
          (norm2): LayerNorm2d((80,), eps=1e-05, elementwise_affine=True)
          (mlp): gdMlp(
            (project_in): Conv2d(80, 320, kernel_size=(1, 1), stride=(1, 1))
            (dwconv): Conv2d(320, 320, kernel_size=(3, 3), stride=(1, 1), padding=(1, 1), groups=320)
            (project_out): Conv2d(160, 80, kernel_size=(1, 1), stride=(1, 1))
            (act): GELU(approximate='none')
          )
        )
      )
    )
    (1): ModuleDict(
      (up): ConvTranspose2d(80, 40, kernel_size=(2, 2), stride=(2, 2))
      (fuse): Conv2d(80, 40, kernel_size=(1, 1), stride=(1, 1), bias=False)
      (block): Sequential(
        (0): VSSBlock(
          (norm): LayerNorm2d((40,), eps=1e-05, elementwise_affine=True)
          (op): SS2D(
            (out_norm): LayerNorm2d((40,), eps=1e-05, elementwise_affine=True)
            (in_proj): Linear2d(in_features=40, out_features=40, bias=False)
            (act): SiLU()
            (conv2d): Conv2d(40, 40, kernel_size=(3, 3), stride=(1, 1), padding=(1, 1), groups=40, bias=False)
            (out_act): Identity()
            (out_proj): Linear2d(in_features=40, out_features=40, bias=False)
            (dropout): Identity()
          )
          (drop_path): timm.DropPath(0)
          (norm2): LayerNorm2d((40,), eps=1e-05, elementwise_affine=True)
          (mlp): gdMlp(
            (project_in): Conv2d(40, 160, kernel_size=(1, 1), stride=(1, 1))
            (dwconv): Conv2d(160, 160, kernel_size=(3, 3), stride=(1, 1), padding=(1, 1), groups=160)
            (project_out): Conv2d(80, 40, kernel_size=(1, 1), stride=(1, 1))
            (act): GELU(approximate='none')
          )
        )
        (1): VSSBlock(
          (norm): LayerNorm2d((40,), eps=1e-05, elementwise_affine=True)
          (op): SS2D(
            (out_norm): LayerNorm2d((40,), eps=1e-05, elementwise_affine=True)
            (in_proj): Linear2d(in_features=40, out_features=40, bias=False)
            (act): SiLU()
            (conv2d): Conv2d(40, 40, kernel_size=(3, 3), stride=(1, 1), padding=(1, 1), groups=40, bias=False)
            (out_act): Identity()
            (out_proj): Linear2d(in_features=40, out_features=40, bias=False)
            (dropout): Identity()
          )
          (drop_path): timm.DropPath(0)
          (norm2): LayerNorm2d((40,), eps=1e-05, elementwise_affine=True)
          (mlp): gdMlp(
            (project_in): Conv2d(40, 160, kernel_size=(1, 1), stride=(1, 1))
            (dwconv): Conv2d(160, 160, kernel_size=(3, 3), stride=(1, 1), padding=(1, 1), groups=160)
            (project_out): Conv2d(80, 40, kernel_size=(1, 1), stride=(1, 1))
            (act): GELU(approximate='none')
          )
        )
      )
    )
  )
  (proj2): Conv2d(40, 3, kernel_size=(3, 3), stride=(1, 1), padding=(1, 1))
  (last_act2): Identity()
  (down_layers2): ModuleList(
    (0): Conv2d(40, 80, kernel_size=(4, 4), stride=(2, 2), padding=(1, 1), bias=False)
    (1): Conv2d(80, 160, kernel_size=(4, 4), stride=(2, 2), padding=(1, 1), bias=False)
  )
  (drop_path): Identity()
  (spatial_attention): SpatialAttention(
    (conv): Conv2d(2, 1, kernel_size=(7, 7), stride=(1, 1), padding=(3, 3), bias=False)
    (sigmoid): Sigmoid()
  )
  (spatial_attention2): SpatialAttention(
    (conv): Conv2d(2, 1, kernel_size=(7, 7), stride=(1, 1), padding=(3, 3), bias=False)
    (sigmoid): Sigmoid()
  )
)
2024-12-09 19:14:55,937 INFO: Start training from epoch: 0, iter: 0
2024-12-09 19:15:26,104 INFO: [TwoBr..][epoch:  1, iter:     100, lr:(2.000e-04,2.000e-04,)] [eta: 22:12:20, time (data): 0.302 (0.011)] l_pix: 8.6535e-02 l_percep: 2.7018e+00 
2024-12-09 19:15:53,552 INFO: [TwoBr..][epoch:  3, iter:     200, lr:(2.000e-04,2.000e-04,)] [eta: 22:31:35, time (data): 0.288 (0.011)] l_pix: 5.7896e-02 l_percep: 2.4282e+00 
…
