…
2024-12-09 12:26:11,618 INFO: Training statistics:
	Number of train images: 485
	Dataset enlarge ratio: 1
	Batch size per gpu: 8
	World size (gpu number): 1
	Require iter number per epoch: 61
	Total epochs: 4919; iters: 300000.
2024-12-09 12:26:11,619 INFO: Dataset [Dataset_PairedImage_Mask] - ValSet is built.
2024-12-09 12:26:11,619 INFO: Number of val images/folders in ValSet: 15
2024-12-09 12:26:11,681 INFO: Network [TwoBranchVMUNet] is created.
2024-12-09 12:26:13,122 INFO: Loss [L1Loss] is created.
2024-12-09 12:26:14,440 INFO: Loss [PerceptualLoss] is created.
TwoBranchVMUNet(
  (last_act): Identity()
  (branch1_first_conv): Conv2d(2, 24, kernel_size=(3, 3), stride=(1, 1), padding=(1, 1))
  (branch1_encoders): ModuleList(
    (0): Sequential(
      (0): VSSBlock(
        (norm): LayerNorm2d((24,), eps=1e-05, elementwise_affine=True)
        (op): SS2D(
          (out_norm): LayerNorm2d((24,), eps=1e-05, elementwise_affine=True)
          (in_proj): Linear2d(in_features=24, out_features=24, bias=False)
          (act): SiLU()
          (conv2d): Conv2d(24, 24, kernel_size=(3, 3), stride=(1, 1), padding=(1, 1), groups=24, bias=False)
          (out_act): Identity()
          (out_proj): Linear2d(in_features=24, out_features=24, bias=False)
          (dropout): Identity()
        )
        (drop_path): timm.DropPath(0)
        (norm2): LayerNorm2d((24,), eps=1e-05, elementwise_affine=True)
        (mlp): gdMlp(
          (project_in): Conv2d(24, 192, kernel_size=(1, 1), stride=(1, 1))
          (dwconv): Conv2d(192, 192, kernel_size=(3, 3), stride=(1, 1), padding=(1, 1), groups=192)
          (project_out): Conv2d(96, 24, kernel_size=(1, 1), stride=(1, 1))
          (act): GELU(approximate='none')
        )
      )
      (1): VSSBlock(
        (norm): LayerNorm2d((24,), eps=1e-05, elementwise_affine=True)
        (op): SS2D(
          (out_norm): LayerNorm2d((24,), eps=1e-05, elementwise_affine=True)
          (in_proj): Linear2d(in_features=24, out_features=24, bias=False)
          (act): SiLU()
          (conv2d): Conv2d(24, 24, kernel_size=(3, 3), stride=(1, 1), padding=(1, 1), groups=24, bias=False)
          (out_act): Identity()
          (out_proj): Linear2d(in_features=24, out_features=24, bias=False)
          (dropout): Identity()
        )
        (drop_path): timm.DropPath(0)
        (norm2): LayerNorm2d((24,), eps=1e-05, elementwise_affine=True)
        (mlp): gdMlp(
          (project_in): Conv2d(24, 192, kernel_size=(1, 1), stride=(1, 1))
          (dwconv): Conv2d(192, 192, kernel_size=(3, 3), stride=(1, 1), padding=(1, 1), groups=192)
          (project_out): Conv2d(96, 24, kernel_size=(1, 1), stride=(1, 1))
          (act): GELU(approximate='none')
        )
      )
    )
    (1): Sequential(
      (0): VSSBlock(
        (norm): LayerNorm2d((48,), eps=1e-05, elementwise_affine=True)
        (op): SS2D(
          (out_norm): LayerNorm2d((48,), eps=1e-05, elementwise_affine=True)
          (in_proj): Linear2d(in_features=48, out_features=48, bias=False)
          (act): SiLU()
          (conv2d): Conv2d(48, 48, kernel_size=(3, 3), stride=(1, 1), padding=(1, 1), groups=48, bias=False)
          (out_act): Identity()
          (out_proj): Linear2d(in_features=48, out_features=48, bias=False)
          (dropout): Identity()
        )
        (drop_path): timm.DropPath(0)
        (norm2): LayerNorm2d((48,), eps=1e-05, elementwise_affine=True)
        (mlp): gdMlp(
          (project_in): Conv2d(48, 384, kernel_size=(1, 1), stride=(1, 1))
          (dwconv): Conv2d(384, 384, kernel_size=(3, 3), stride=(1, 1), padding=(1, 1), groups=384)
          (project_out): Conv2d(192, 48, kernel_size=(1, 1), stride=(1, 1))
          (act): GELU(approximate='none')
        )
      )
      (1): VSSBlock(
        (norm): LayerNorm2d((48,), eps=1e-05, elementwise_affine=True)
        (op): SS2D(
          (out_norm): LayerNorm2d((48,), eps=1e-05, elementwise_affine=True)
          (in_proj): Linear2d(in_features=48, out_features=48, bias=False)
          (act): SiLU()
          (conv2d): Conv2d(48, 48, kernel_size=(3, 3), stride=(1, 1), padding=(1, 1), groups=48, bias=False)
          (out_act): Identity()
          (out_proj): Linear2d(in_features=48, out_features=48, bias=False)
          (dropout): Identity()
        )
        (drop_path): timm.DropPath(0)
        (norm2): LayerNorm2d((48,), eps=1e-05, elementwise_affine=True)
        (mlp): gdMlp(
          (project_in): Conv2d(48, 384, kernel_size=(1, 1), stride=(1, 1))
          (dwconv): Conv2d(384, 384, kernel_size=(3, 3), stride=(1, 1), padding=(1, 1), groups=384)
          (project_out): Conv2d(192, 48, kernel_size=(1, 1), stride=(1, 1))
          (act): GELU(approximate='none')
        )
      )
    )
  )
  (branch1_bottleneck): Sequential(
    (0): VSSBlock(
      (norm): LayerNorm2d((96,), eps=1e-05, elementwise_affine=True)
      (op): SS2D(
        (out_norm): LayerNorm2d((96,), eps=1e-05, elementwise_affine=True)
        (in_proj): Linear2d(in_features=96, out_features=96, bias=False)
        (act): SiLU()
        (conv2d): Conv2d(96, 96, kernel_size=(3, 3), stride=(1, 1), padding=(1, 1), groups=96, bias=False)
        (out_act): Identity()
        (out_proj): Linear2d(in_features=96, out_features=96, bias=False)
        (dropout): Identity()
      )
      (drop_path): timm.DropPath(0)
      (norm2): LayerNorm2d((96,), eps=1e-05, elementwise_affine=True)
      (mlp): gdMlp(
        (project_in): Conv2d(96, 768, kernel_size=(1, 1), stride=(1, 1))
        (dwconv): Conv2d(768, 768, kernel_size=(3, 3), stride=(1, 1), padding=(1, 1), groups=768)
        (project_out): Conv2d(384, 96, kernel_size=(1, 1), stride=(1, 1))
        (act): GELU(approximate='none')
      )
    )
    (1): VSSBlock(
      (norm): LayerNorm2d((96,), eps=1e-05, elementwise_affine=True)
      (op): SS2D(
        (out_norm): LayerNorm2d((96,), eps=1e-05, elementwise_affine=True)
        (in_proj): Linear2d(in_features=96, out_features=96, bias=False)
        (act): SiLU()
        (conv2d): Conv2d(96, 96, kernel_size=(3, 3), stride=(1, 1), padding=(1, 1), groups=96, bias=False)
        (out_act): Identity()
        (out_proj): Linear2d(in_features=96, out_features=96, bias=False)
        (dropout): Identity()
      )
      (drop_path): timm.DropPath(0)
      (norm2): LayerNorm2d((96,), eps=1e-05, elementwise_affine=True)
      (mlp): gdMlp(
        (project_in): Conv2d(96, 768, kernel_size=(1, 1), stride=(1, 1))
        (dwconv): Conv2d(768, 768, kernel_size=(3, 3), stride=(1, 1), padding=(1, 1), groups=768)
        (project_out): Conv2d(384, 96, kernel_size=(1, 1), stride=(1, 1))
        (act): GELU(approximate='none')
      )
    )
  )
  (branch1_decoders): ModuleList(
    (0): ModuleDict(
      (up): ConvTranspose2d(96, 48, kernel_size=(2, 2), stride=(2, 2))
      (fuse): Conv2d(96, 48, kernel_size=(1, 1), stride=(1, 1), bias=False)
      (block): Sequential(
        (0): VSSBlock(
          (norm): LayerNorm2d((48,), eps=1e-05, elementwise_affine=True)
          (op): SS2D(
            (out_norm): LayerNorm2d((48,), eps=1e-05, elementwise_affine=True)
            (in_proj): Linear2d(in_features=48, out_features=48, bias=False)
            (act): SiLU()
            (conv2d): Conv2d(48, 48, kernel_size=(3, 3), stride=(1, 1), padding=(1, 1), groups=48, bias=False)
            (out_act): Identity()
            (out_proj): Linear2d(in_features=48, out_features=48, bias=False)
            (dropout): Identity()
          )
          (drop_path): timm.DropPath(0)
          (norm2): LayerNorm2d((48,), eps=1e-05, elementwise_affine=True)
          (mlp): gdMlp(
            (project_in): Conv2d(48, 384, kernel_size=(1, 1), stride=(1, 1))
            (dwconv): Conv2d(384, 384, kernel_size=(3, 3), stride=(1, 1), padding=(1, 1), groups=384)
            (project_out): Conv2d(192, 48, kernel_size=(1, 1), stride=(1, 1))
            (act): GELU(approximate='none')
          )
        )
        (1): VSSBlock(
          (norm): LayerNorm2d((48,), eps=1e-05, elementwise_affine=True)
          (op): SS2D(
            (out_norm): LayerNorm2d((48,), eps=1e-05, elementwise_affine=True)
            (in_proj): Linear2d(in_features=48, out_features=48, bias=False)
            (act): SiLU()
            (conv2d): Conv2d(48, 48, kernel_size=(3, 3), stride=(1, 1), padding=(1, 1), groups=48, bias=False)
            (out_act): Identity()
            (out_proj): Linear2d(in_features=48, out_features=48, bias=False)
            (dropout): Identity()
          )
          (drop_path): timm.DropPath(0)
          (norm2): LayerNorm2d((48,), eps=1e-05, elementwise_affine=True)
          (mlp): gdMlp(
            (project_in): Conv2d(48, 384, kernel_size=(1, 1), stride=(1, 1))
            (dwconv): Conv2d(384, 384, kernel_size=(3, 3), stride=(1, 1), padding=(1, 1), groups=384)
            (project_out): Conv2d(192, 48, kernel_size=(1, 1), stride=(1, 1))
            (act): GELU(approximate='none')
          )
        )
      )
    )
    (1): ModuleDict(
      (up): ConvTranspose2d(48, 24, kernel_size=(2, 2), stride=(2, 2))
      (fuse): Conv2d(48, 24, kernel_size=(1, 1), stride=(1, 1), bias=False)
      (block): Sequential(
        (0): VSSBlock(
          (norm): LayerNorm2d((24,), eps=1e-05, elementwise_affine=True)
          (op): SS2D(
            (out_norm): LayerNorm2d((24,), eps=1e-05, elementwise_affine=True)
            (in_proj): Linear2d(in_features=24, out_features=24, bias=False)
            (act): SiLU()
            (conv2d): Conv2d(24, 24, kernel_size=(3, 3), stride=(1, 1), padding=(1, 1), groups=24, bias=False)
            (out_act): Identity()
            (out_proj): Linear2d(in_features=24, out_features=24, bias=False)
            (dropout): Identity()
          )
          (drop_path): timm.DropPath(0)
          (norm2): LayerNorm2d((24,), eps=1e-05, elementwise_affine=True)
          (mlp): gdMlp(
            (project_in): Conv2d(24, 192, kernel_size=(1, 1), stride=(1, 1))
            (dwconv): Conv2d(192, 192, kernel_size=(3, 3), stride=(1, 1), padding=(1, 1), groups=192)
            (project_out): Conv2d(96, 24, kernel_size=(1, 1), stride=(1, 1))
            (act): GELU(approximate='none')
          )
        )
        (1): VSSBlock(
          (norm): LayerNorm2d((24,), eps=1e-05, elementwise_affine=True)
          (op): SS2D(
            (out_norm): LayerNorm2d((24,), eps=1e-05, elementwise_affine=True)
            (in_proj): Linear2d(in_features=24, out_features=24, bias=False)
            (act): SiLU()
            (conv2d): Conv2d(24, 24, kernel_size=(3, 3), stride=(1, 1), padding=(1, 1), groups=24, bias=False)
            (out_act): Identity()
            (out_proj): Linear2d(in_features=24, out_features=24, bias=False)
            (dropout): Identity()
          )
          (drop_path): timm.DropPath(0)
          (norm2): LayerNorm2d((24,), eps=1e-05, elementwise_affine=True)
          (mlp): gdMlp(
            (project_in): Conv2d(24, 192, kernel_size=(1, 1), stride=(1, 1))
            (dwconv): Conv2d(192, 192, kernel_size=(3, 3), stride=(1, 1), padding=(1, 1), groups=192)
            (project_out): Conv2d(96, 24, kernel_size=(1, 1), stride=(1, 1))
            (act): GELU(approximate='none')
          )
        )
      )
    )
  )
  (branch1_proj): Conv2d(24, 24, kernel_size=(3, 3), stride=(1, 1), padding=(1, 1))
  (branch1_down_layers): ModuleList(
    (0): Conv2d(24, 48, kernel_size=(4, 4), stride=(2, 2), padding=(1, 1), bias=False)
    (1): Conv2d(48, 96, kernel_size=(4, 4), stride=(2, 2), padding=(1, 1), bias=False)
  )
  (branch2_first_conv): Conv2d(1, 24, kernel_size=(3, 3), stride=(1, 1), padding=(1, 1))
  (branch2_encoders): ModuleList(
    (0): Sequential(
      (0): VSSBlock(
        (norm): LayerNorm2d((24,), eps=1e-05, elementwise_affine=True)
        (op): SS2D(
          (out_norm): LayerNorm2d((24,), eps=1e-05, elementwise_affine=True)
          (in_proj): Linear2d(in_features=24, out_features=24, bias=False)
          (act): SiLU()
          (conv2d): Conv2d(24, 24, kernel_size=(3, 3), stride=(1, 1), padding=(1, 1), groups=24, bias=False)
          (out_act): Identity()
          (out_proj): Linear2d(in_features=24, out_features=24, bias=False)
          (dropout): Identity()
        )
        (drop_path): timm.DropPath(0)
        (norm2): LayerNorm2d((24,), eps=1e-05, elementwise_affine=True)
        (mlp): gdMlp(
          (project_in): Conv2d(24, 192, kernel_size=(1, 1), stride=(1, 1))
          (dwconv): Conv2d(192, 192, kernel_size=(3, 3), stride=(1, 1), padding=(1, 1), groups=192)
          (project_out): Conv2d(96, 24, kernel_size=(1, 1), stride=(1, 1))
          (act): GELU(approximate='none')
        )
      )
      (1): VSSBlock(
        (norm): LayerNorm2d((24,), eps=1e-05, elementwise_affine=True)
        (op): SS2D(
          (out_norm): LayerNorm2d((24,), eps=1e-05, elementwise_affine=True)
          (in_proj): Linear2d(in_features=24, out_features=24, bias=False)
          (act): SiLU()
          (conv2d): Conv2d(24, 24, kernel_size=(3, 3), stride=(1, 1), padding=(1, 1), groups=24, bias=False)
          (out_act): Identity()
          (out_proj): Linear2d(in_features=24, out_features=24, bias=False)
          (dropout): Identity()
        )
        (drop_path): timm.DropPath(0)
        (norm2): LayerNorm2d((24,), eps=1e-05, elementwise_affine=True)
        (mlp): gdMlp(
          (project_in): Conv2d(24, 192, kernel_size=(1, 1), stride=(1, 1))
          (dwconv): Conv2d(192, 192, kernel_size=(3, 3), stride=(1, 1), padding=(1, 1), groups=192)
          (project_out): Conv2d(96, 24, kernel_size=(1, 1), stride=(1, 1))
          (act): GELU(approximate='none')
        )
      )
    )
    (1): Sequential(
      (0): VSSBlock(
        (norm): LayerNorm2d((48,), eps=1e-05, elementwise_affine=True)
        (op): SS2D(
          (out_norm): LayerNorm2d((48,), eps=1e-05, elementwise_affine=True)
          (in_proj): Linear2d(in_features=48, out_features=48, bias=False)
          (act): SiLU()
          (conv2d): Conv2d(48, 48, kernel_size=(3, 3), stride=(1, 1), padding=(1, 1), groups=48, bias=False)
          (out_act): Identity()
          (out_proj): Linear2d(in_features=48, out_features=48, bias=False)
          (dropout): Identity()
        )
        (drop_path): timm.DropPath(0)
        (norm2): LayerNorm2d((48,), eps=1e-05, elementwise_affine=True)
        (mlp): gdMlp(
          (project_in): Conv2d(48, 384, kernel_size=(1, 1), stride=(1, 1))
          (dwconv): Conv2d(384, 384, kernel_size=(3, 3), stride=(1, 1), padding=(1, 1), groups=384)
          (project_out): Conv2d(192, 48, kernel_size=(1, 1), stride=(1, 1))
          (act): GELU(approximate='none')
        )
      )
      (1): VSSBlock(
        (norm): LayerNorm2d((48,), eps=1e-05, elementwise_affine=True)
        (op): SS2D(
          (out_norm): LayerNorm2d((48,), eps=1e-05, elementwise_affine=True)
          (in_proj): Linear2d(in_features=48, out_features=48, bias=False)
          (act): SiLU()
          (conv2d): Conv2d(48, 48, kernel_size=(3, 3), stride=(1, 1), padding=(1, 1), groups=48, bias=False)
          (out_act): Identity()
          (out_proj): Linear2d(in_features=48, out_features=48, bias=False)
          (dropout): Identity()
        )
        (drop_path): timm.DropPath(0)
        (norm2): LayerNorm2d((48,), eps=1e-05, elementwise_affine=True)
        (mlp): gdMlp(
          (project_in): Conv2d(48, 384, kernel_size=(1, 1), stride=(1, 1))
          (dwconv): Conv2d(384, 384, kernel_size=(3, 3), stride=(1, 1), padding=(1, 1), groups=384)
          (project_out): Conv2d(192, 48, kernel_size=(1, 1), stride=(1, 1))
          (act): GELU(approximate='none')
        )
      )
    )
  )
  (branch2_bottleneck): Sequential(
    (0): VSSBlock(
      (norm): LayerNorm2d((96,), eps=1e-05, elementwise_affine=True)
      (op): SS2D(
        (out_norm): LayerNorm2d((96,), eps=1e-05, elementwise_affine=True)
        (in_proj): Linear2d(in_features=96, out_features=96, bias=False)
        (act): SiLU()
        (conv2d): Conv2d(96, 96, kernel_size=(3, 3), stride=(1, 1), padding=(1, 1), groups=96, bias=False)
        (out_act): Identity()
        (out_proj): Linear2d(in_features=96, out_features=96, bias=False)
        (dropout): Identity()
      )
      (drop_path): timm.DropPath(0)
      (norm2): LayerNorm2d((96,), eps=1e-05, elementwise_affine=True)
      (mlp): gdMlp(
        (project_in): Conv2d(96, 768, kernel_size=(1, 1), stride=(1, 1))
        (dwconv): Conv2d(768, 768, kernel_size=(3, 3), stride=(1, 1), padding=(1, 1), groups=768)
        (project_out): Conv2d(384, 96, kernel_size=(1, 1), stride=(1, 1))
        (act): GELU(approximate='none')
      )
    )
    (1): VSSBlock(
      (norm): LayerNorm2d((96,), eps=1e-05, elementwise_affine=True)
      (op): SS2D(
        (out_norm): LayerNorm2d((96,), eps=1e-05, elementwise_affine=True)
        (in_proj): Linear2d(in_features=96, out_features=96, bias=False)
        (act): SiLU()
        (conv2d): Conv2d(96, 96, kernel_size=(3, 3), stride=(1, 1), padding=(1, 1), groups=96, bias=False)
        (out_act): Identity()
        (out_proj): Linear2d(in_features=96, out_features=96, bias=False)
        (dropout): Identity()
      )
      (drop_path): timm.DropPath(0)
      (norm2): LayerNorm2d((96,), eps=1e-05, elementwise_affine=True)
      (mlp): gdMlp(
        (project_in): Conv2d(96, 768, kernel_size=(1, 1), stride=(1, 1))
        (dwconv): Conv2d(768, 768, kernel_size=(3, 3), stride=(1, 1), padding=(1, 1), groups=768)
        (project_out): Conv2d(384, 96, kernel_size=(1, 1), stride=(1, 1))
        (act): GELU(approximate='none')
      )
    )
  )
  (branch2_decoders): ModuleList(
    (0): ModuleDict(
      (up): ConvTranspose2d(96, 48, kernel_size=(2, 2), stride=(2, 2))
      (fuse): Conv2d(96, 48, kernel_size=(1, 1), stride=(1, 1), bias=False)
      (block): Sequential(
        (0): VSSBlock(
          (norm): LayerNorm2d((48,), eps=1e-05, elementwise_affine=True)
          (op): SS2D(
            (out_norm): LayerNorm2d((48,), eps=1e-05, elementwise_affine=True)
            (in_proj): Linear2d(in_features=48, out_features=48, bias=False)
            (act): SiLU()
            (conv2d): Conv2d(48, 48, kernel_size=(3, 3), stride=(1, 1), padding=(1, 1), groups=48, bias=False)
            (out_act): Identity()
            (out_proj): Linear2d(in_features=48, out_features=48, bias=False)
            (dropout): Identity()
          )
          (drop_path): timm.DropPath(0)
          (norm2): LayerNorm2d((48,), eps=1e-05, elementwise_affine=True)
          (mlp): gdMlp(
            (project_in): Conv2d(48, 384, kernel_size=(1, 1), stride=(1, 1))
            (dwconv): Conv2d(384, 384, kernel_size=(3, 3), stride=(1, 1), padding=(1, 1), groups=384)
            (project_out): Conv2d(192, 48, kernel_size=(1, 1), stride=(1, 1))
            (act): GELU(approximate='none')
          )
        )
        (1): VSSBlock(
          (norm): LayerNorm2d((48,), eps=1e-05, elementwise_affine=True)
          (op): SS2D(
            (out_norm): LayerNorm2d((48,), eps=1e-05, elementwise_affine=True)
            (in_proj): Linear2d(in_features=48, out_features=48, bias=False)
            (act): SiLU()
            (conv2d): Conv2d(48, 48, kernel_size=(3, 3), stride=(1, 1), padding=(1, 1), groups=48, bias=False)
            (out_act): Identity()
            (out_proj): Linear2d(in_features=48, out_features=48, bias=False)
            (dropout): Identity()
          )
          (drop_path): timm.DropPath(0)
          (norm2): LayerNorm2d((48,), eps=1e-05, elementwise_affine=True)
          (mlp): gdMlp(
            (project_in): Conv2d(48, 384, kernel_size=(1, 1), stride=(1, 1))
            (dwconv): Conv2d(384, 384, kernel_size=(3, 3), stride=(1, 1), padding=(1, 1), groups=384)
            (project_out): Conv2d(192, 48, kernel_size=(1, 1), stride=(1, 1))
            (act): GELU(approximate='none')
          )
        )
      )
    )
    (1): ModuleDict(
      (up): ConvTranspose2d(48, 24, kernel_size=(2, 2), stride=(2, 2))
      (fuse): Conv2d(48, 24, kernel_size=(1, 1), stride=(1, 1), bias=False)
      (block): Sequential(
        (0): VSSBlock(
          (norm): LayerNorm2d((24,), eps=1e-05, elementwise_affine=True)
          (op): SS2D(
            (out_norm): LayerNorm2d((24,), eps=1e-05, elementwise_affine=True)
            (in_proj): Linear2d(in_features=24, out_features=24, bias=False)
            (act): SiLU()
            (conv2d): Conv2d(24, 24, kernel_size=(3, 3), stride=(1, 1), padding=(1, 1), groups=24, bias=False)
            (out_act): Identity()
            (out_proj): Linear2d(in_features=24, out_features=24, bias=False)
            (dropout): Identity()
          )
          (drop_path): timm.DropPath(0)
          (norm2): LayerNorm2d((24,), eps=1e-05, elementwise_affine=True)
          (mlp): gdMlp(
            (project_in): Conv2d(24, 192, kernel_size=(1, 1), stride=(1, 1))
            (dwconv): Conv2d(192, 192, kernel_size=(3, 3), stride=(1, 1), padding=(1, 1), groups=192)
            (project_out): Conv2d(96, 24, kernel_size=(1, 1), stride=(1, 1))
            (act): GELU(approximate='none')
          )
        )
        (1): VSSBlock(
          (norm): LayerNorm2d((24,), eps=1e-05, elementwise_affine=True)
          (op): SS2D(
            (out_norm): LayerNorm2d((24,), eps=1e-05, elementwise_affine=True)
            (in_proj): Linear2d(in_features=24, out_features=24, bias=False)
            (act): SiLU()
            (conv2d): Conv2d(24, 24, kernel_size=(3, 3), stride=(1, 1), padding=(1, 1), groups=24, bias=False)
            (out_act): Identity()
            (out_proj): Linear2d(in_features=24, out_features=24, bias=False)
            (dropout): Identity()
          )
          (drop_path): timm.DropPath(0)
          (norm2): LayerNorm2d((24,), eps=1e-05, elementwise_affine=True)
          (mlp): gdMlp(
            (project_in): Conv2d(24, 192, kernel_size=(1, 1), stride=(1, 1))
            (dwconv): Conv2d(192, 192, kernel_size=(3, 3), stride=(1, 1), padding=(1, 1), groups=192)
            (project_out): Conv2d(96, 24, kernel_size=(1, 1), stride=(1, 1))
            (act): GELU(approximate='none')
          )
        )
      )
    )
  )
  (branch2_proj): Conv2d(24, 24, kernel_size=(3, 3), stride=(1, 1), padding=(1, 1))
  (branch2_down_layers): ModuleList(
    (0): Conv2d(24, 48, kernel_size=(4, 4), stride=(2, 2), padding=(1, 1), bias=False)
    (1): Conv2d(48, 96, kernel_size=(4, 4), stride=(2, 2), padding=(1, 1), bias=False)
  )
  (cross_attention): WindowedCrossAttention(
    (query): Conv2d(24, 24, kernel_size=(1, 1), stride=(1, 1))
    (key): Conv2d(24, 24, kernel_size=(1, 1), stride=(1, 1))
    (value): Conv2d(24, 24, kernel_size=(1, 1), stride=(1, 1))
    (out): Conv2d(24, 24, kernel_size=(1, 1), stride=(1, 1))
  )
  (refinement): Sequential(
    (0): Conv2d(48, 24, kernel_size=(3, 3), stride=(1, 1), padding=(1, 1))
    (1): ReLU(inplace=True)
    (2): Conv2d(24, 3, kernel_size=(3, 3), stride=(1, 1), padding=(1, 1))
  )
)
2024-12-09 12:26:14,613 INFO: Start training from epoch: 0, iter: 0
2024-12-09 12:26:43,936 INFO: [TwoBr..][epoch:  1, iter:     100, lr:(2.000e-04,2.000e-04,)] [eta: 21:37:32, time (data): 0.293 (0.009)] l_pix: 1.4471e-01 l_percep: 2.7580e+00 
2024-12-09 12:27:10,899 INFO: [TwoBr..][epoch:  3, iter:     200, lr:(2.000e-04,2.000e-04,)] [eta: 22:02:02, time (data): 0.281 (0.010)] l_pix: 1.5221e-01 l_percep: 2.6321e+00 
…
