…
2024-12-09 12:26:09,470 INFO: Training statistics:
	Number of train images: 485
	Dataset enlarge ratio: 1
	Batch size per gpu: 8
	World size (gpu number): 1
	Require iter number per epoch: 61
	Total epochs: 4919; iters: 300000.
2024-12-09 12:26:09,471 INFO: Dataset [Dataset_PairedImage_Mask] - ValSet is built.
2024-12-09 12:26:09,471 INFO: Number of val images/folders in ValSet: 15
2024-12-09 12:26:09,541 INFO: Network [TwoBranchVMUNet] is created.
2024-12-09 12:26:10,873 INFO: Loss [L1Loss] is created.
2024-12-09 12:26:12,149 INFO: Loss [PerceptualLoss] is created.
TwoBranchVMUNet(
  (last_act): Identity()
  (branch1_first_conv): Conv2d(2, 32, kernel_size=(3, 3), stride=(1, 1), padding=(1, 1))
  (branch1_encoders): ModuleList(
    (0): Sequential(
      (0): VSSBlock(
        (norm): LayerNorm2d((32,), eps=1e-05, elementwise_affine=True)
        (op): SS2D(
          (out_norm): LayerNorm2d((32,), eps=1e-05, elementwise_affine=True)
          (in_proj): Linear2d(in_features=32, out_features=32, bias=False)
          (act): SiLU()
          (conv2d): Conv2d(32, 32, kernel_size=(3, 3), stride=(1, 1), padding=(1, 1), groups=32, bias=False)
          (out_act): Identity()
          (out_proj): Linear2d(in_features=32, out_features=32, bias=False)
          (dropout): Identity()
        )
        (drop_path): timm.DropPath(0)
        (norm2): LayerNorm2d((32,), eps=1e-05, elementwise_affine=True)
        (mlp): gdMlp(
          (project_in): Conv2d(32, 256, kernel_size=(1, 1), stride=(1, 1))
          (dwconv): Conv2d(256, 256, kernel_size=(3, 3), stride=(1, 1), padding=(1, 1), groups=256)
          (project_out): Conv2d(128, 32, kernel_size=(1, 1), stride=(1, 1))
          (act): GELU(approximate='none')
        )
      )
      (1): VSSBlock(
        (norm): LayerNorm2d((32,), eps=1e-05, elementwise_affine=True)
        (op): SS2D(
          (out_norm): LayerNorm2d((32,), eps=1e-05, elementwise_affine=True)
          (in_proj): Linear2d(in_features=32, out_features=32, bias=False)
          (act): SiLU()
          (conv2d): Conv2d(32, 32, kernel_size=(3, 3), stride=(1, 1), padding=(1, 1), groups=32, bias=False)
          (out_act): Identity()
          (out_proj): Linear2d(in_features=32, out_features=32, bias=False)
          (dropout): Identity()
        )
        (drop_path): timm.DropPath(0)
        (norm2): LayerNorm2d((32,), eps=1e-05, elementwise_affine=True)
        (mlp): gdMlp(
          (project_in): Conv2d(32, 256, kernel_size=(1, 1), stride=(1, 1))
          (dwconv): Conv2d(256, 256, kernel_size=(3, 3), stride=(1, 1), padding=(1, 1), groups=256)
          (project_out): Conv2d(128, 32, kernel_size=(1, 1), stride=(1, 1))
          (act): GELU(approximate='none')
        )
      )
    )
    (1): Sequential(
      (0): VSSBlock(
        (norm): LayerNorm2d((64,), eps=1e-05, elementwise_affine=True)
        (op): SS2D(
          (out_norm): LayerNorm2d((64,), eps=1e-05, elementwise_affine=True)
          (in_proj): Linear2d(in_features=64, out_features=64, bias=False)
          (act): SiLU()
          (conv2d): Conv2d(64, 64, kernel_size=(3, 3), stride=(1, 1), padding=(1, 1), groups=64, bias=False)
          (out_act): Identity()
          (out_proj): Linear2d(in_features=64, out_features=64, bias=False)
          (dropout): Identity()
        )
        (drop_path): timm.DropPath(0)
        (norm2): LayerNorm2d((64,), eps=1e-05, elementwise_affine=True)
        (mlp): gdMlp(
          (project_in): Conv2d(64, 512, kernel_size=(1, 1), stride=(1, 1))
          (dwconv): Conv2d(512, 512, kernel_size=(3, 3), stride=(1, 1), padding=(1, 1), groups=512)
          (project_out): Conv2d(256, 64, kernel_size=(1, 1), stride=(1, 1))
          (act): GELU(approximate='none')
        )
      )
      (1): VSSBlock(
        (norm): LayerNorm2d((64,), eps=1e-05, elementwise_affine=True)
        (op): SS2D(
          (out_norm): LayerNorm2d((64,), eps=1e-05, elementwise_affine=True)
          (in_proj): Linear2d(in_features=64, out_features=64, bias=False)
          (act): SiLU()
          (conv2d): Conv2d(64, 64, kernel_size=(3, 3), stride=(1, 1), padding=(1, 1), groups=64, bias=False)
          (out_act): Identity()
          (out_proj): Linear2d(in_features=64, out_features=64, bias=False)
          (dropout): Identity()
        )
        (drop_path): timm.DropPath(0)
        (norm2): LayerNorm2d((64,), eps=1e-05, elementwise_affine=True)
        (mlp): gdMlp(
          (project_in): Conv2d(64, 512, kernel_size=(1, 1), stride=(1, 1))
          (dwconv): Conv2d(512, 512, kernel_size=(3, 3), stride=(1, 1), padding=(1, 1), groups=512)
          (project_out): Conv2d(256, 64, kernel_size=(1, 1), stride=(1, 1))
          (act): GELU(approximate='none')
        )
      )
    )
  )
  (branch1_bottleneck): Sequential(
    (0): VSSBlock(
      (norm): LayerNorm2d((128,), eps=1e-05, elementwise_affine=True)
      (op): SS2D(
        (out_norm): LayerNorm2d((128,), eps=1e-05, elementwise_affine=True)
        (in_proj): Linear2d(in_features=128, out_features=128, bias=False)
        (act): SiLU()
        (conv2d): Conv2d(128, 128, kernel_size=(3, 3), stride=(1, 1), padding=(1, 1), groups=128, bias=False)
        (out_act): Identity()
        (out_proj): Linear2d(in_features=128, out_features=128, bias=False)
        (dropout): Identity()
      )
      (drop_path): timm.DropPath(0)
      (norm2): LayerNorm2d((128,), eps=1e-05, elementwise_affine=True)
      (mlp): gdMlp(
        (project_in): Conv2d(128, 1024, kernel_size=(1, 1), stride=(1, 1))
        (dwconv): Conv2d(1024, 1024, kernel_size=(3, 3), stride=(1, 1), padding=(1, 1), groups=1024)
        (project_out): Conv2d(512, 128, kernel_size=(1, 1), stride=(1, 1))
        (act): GELU(approximate='none')
      )
    )
    (1): VSSBlock(
      (norm): LayerNorm2d((128,), eps=1e-05, elementwise_affine=True)
      (op): SS2D(
        (out_norm): LayerNorm2d((128,), eps=1e-05, elementwise_affine=True)
        (in_proj): Linear2d(in_features=128, out_features=128, bias=False)
        (act): SiLU()
        (conv2d): Conv2d(128, 128, kernel_size=(3, 3), stride=(1, 1), padding=(1, 1), groups=128, bias=False)
        (out_act): Identity()
        (out_proj): Linear2d(in_features=128, out_features=128, bias=False)
        (dropout): Identity()
      )
      (drop_path): timm.DropPath(0)
      (norm2): LayerNorm2d((128,), eps=1e-05, elementwise_affine=True)
      (mlp): gdMlp(
        (project_in): Conv2d(128, 1024, kernel_size=(1, 1), stride=(1, 1))
        (dwconv): Conv2d(1024, 1024, kernel_size=(3, 3), stride=(1, 1), padding=(1, 1), groups=1024)
        (project_out): Conv2d(512, 128, kernel_size=(1, 1), stride=(1, 1))
        (act): GELU(approximate='none')
      )
    )
  )
  (branch1_decoders): ModuleList(
    (0): ModuleDict(
      (up): ConvTranspose2d(128, 64, kernel_size=(2, 2), stride=(2, 2))
      (fuse): Conv2d(128, 64, kernel_size=(1, 1), stride=(1, 1), bias=False)
      (block): Sequential(
        (0): VSSBlock(
          (norm): LayerNorm2d((64,), eps=1e-05, elementwise_affine=True)
          (op): SS2D(
            (out_norm): LayerNorm2d((64,), eps=1e-05, elementwise_affine=True)
            (in_proj): Linear2d(in_features=64, out_features=64, bias=False)
            (act): SiLU()
            (conv2d): Conv2d(64, 64, kernel_size=(3, 3), stride=(1, 1), padding=(1, 1), groups=64, bias=False)
            (out_act): Identity()
            (out_proj): Linear2d(in_features=64, out_features=64, bias=False)
            (dropout): Identity()
          )
          (drop_path): timm.DropPath(0)
          (norm2): LayerNorm2d((64,), eps=1e-05, elementwise_affine=True)
          (mlp): gdMlp(
            (project_in): Conv2d(64, 512, kernel_size=(1, 1), stride=(1, 1))
            (dwconv): Conv2d(512, 512, kernel_size=(3, 3), stride=(1, 1), padding=(1, 1), groups=512)
            (project_out): Conv2d(256, 64, kernel_size=(1, 1), stride=(1, 1))
            (act): GELU(approximate='none')
          )
        )
        (1): VSSBlock(
          (norm): LayerNorm2d((64,), eps=1e-05, elementwise_affine=True)
          (op): SS2D(
            (out_norm): LayerNorm2d((64,), eps=1e-05, elementwise_affine=True)
            (in_proj): Linear2d(in_features=64, out_features=64, bias=False)
            (act): SiLU()
            (conv2d): Conv2d(64, 64, kernel_size=(3, 3), stride=(1, 1), padding=(1, 1), groups=64, bias=False)
            (out_act): Identity()
            (out_proj): Linear2d(in_features=64, out_features=64, bias=False)
            (dropout): Identity()
          )
          (drop_path): timm.DropPath(0)
          (norm2): LayerNorm2d((64,), eps=1e-05, elementwise_affine=True)
          (mlp): gdMlp(
            (project_in): Conv2d(64, 512, kernel_size=(1, 1), stride=(1, 1))
            (dwconv): Conv2d(512, 512, kernel_size=(3, 3), stride=(1, 1), padding=(1, 1), groups=512)
            (project_out): Conv2d(256, 64, kernel_size=(1, 1), stride=(1, 1))
            (act): GELU(approximate='none')
          )
        )
      )
    )
    (1): ModuleDict(
      (up): ConvTranspose2d(64, 32, kernel_size=(2, 2), stride=(2, 2))
      (fuse): Conv2d(64, 32, kernel_size=(1, 1), stride=(1, 1), bias=False)
      (block): Sequential(
        (0): VSSBlock(
          (norm): LayerNorm2d((32,), eps=1e-05, elementwise_affine=True)
          (op): SS2D(
            (out_norm): LayerNorm2d((32,), eps=1e-05, elementwise_affine=True)
            (in_proj): Linear2d(in_features=32, out_features=32, bias=False)
            (act): SiLU()
            (conv2d): Conv2d(32, 32, kernel_size=(3, 3), stride=(1, 1), padding=(1, 1), groups=32, bias=False)
            (out_act): Identity()
            (out_proj): Linear2d(in_features=32, out_features=32, bias=False)
            (dropout): Identity()
          )
          (drop_path): timm.DropPath(0)
          (norm2): LayerNorm2d((32,), eps=1e-05, elementwise_affine=True)
          (mlp): gdMlp(
            (project_in): Conv2d(32, 256, kernel_size=(1, 1), stride=(1, 1))
            (dwconv): Conv2d(256, 256, kernel_size=(3, 3), stride=(1, 1), padding=(1, 1), groups=256)
            (project_out): Conv2d(128, 32, kernel_size=(1, 1), stride=(1, 1))
            (act): GELU(approximate='none')
          )
        )
        (1): VSSBlock(
          (norm): LayerNorm2d((32,), eps=1e-05, elementwise_affine=True)
          (op): SS2D(
            (out_norm): LayerNorm2d((32,), eps=1e-05, elementwise_affine=True)
            (in_proj): Linear2d(in_features=32, out_features=32, bias=False)
            (act): SiLU()
            (conv2d): Conv2d(32, 32, kernel_size=(3, 3), stride=(1, 1), padding=(1, 1), groups=32, bias=False)
            (out_act): Identity()
            (out_proj): Linear2d(in_features=32, out_features=32, bias=False)
            (dropout): Identity()
          )
          (drop_path): timm.DropPath(0)
          (norm2): LayerNorm2d((32,), eps=1e-05, elementwise_affine=True)
          (mlp): gdMlp(
            (project_in): Conv2d(32, 256, kernel_size=(1, 1), stride=(1, 1))
            (dwconv): Conv2d(256, 256, kernel_size=(3, 3), stride=(1, 1), padding=(1, 1), groups=256)
            (project_out): Conv2d(128, 32, kernel_size=(1, 1), stride=(1, 1))
            (act): GELU(approximate='none')
          )
        )
      )
    )
  )
  (branch1_proj): Conv2d(32, 32, kernel_size=(3, 3), stride=(1, 1), padding=(1, 1))
  (branch1_down_layers): ModuleList(
    (0): Conv2d(32, 64, kernel_size=(4, 4), stride=(2, 2), padding=(1, 1), bias=False)
    (1): Conv2d(64, 128, kernel_size=(4, 4), stride=(2, 2), padding=(1, 1), bias=False)
  )
  (branch2_first_conv): Conv2d(1, 32, kernel_size=(3, 3), stride=(1, 1), padding=(1, 1))
  (branch2_encoders): ModuleList(
    (0): Sequential(
      (0): VSSBlock(
        (norm): LayerNorm2d((32,), eps=1e-05, elementwise_affine=True)
        (op): SS2D(
          (out_norm): LayerNorm2d((32,), eps=1e-05, elementwise_affine=True)
          (in_proj): Linear2d(in_features=32, out_features=32, bias=False)
          (act): SiLU()
          (conv2d): Conv2d(32, 32, kernel_size=(3, 3), stride=(1, 1), padding=(1, 1), groups=32, bias=False)
          (out_act): Identity()
          (out_proj): Linear2d(in_features=32, out_features=32, bias=False)
          (dropout): Identity()
        )
        (drop_path): timm.DropPath(0)
        (norm2): LayerNorm2d((32,), eps=1e-05, elementwise_affine=True)
        (mlp): gdMlp(
          (project_in): Conv2d(32, 256, kernel_size=(1, 1), stride=(1, 1))
          (dwconv): Conv2d(256, 256, kernel_size=(3, 3), stride=(1, 1), padding=(1, 1), groups=256)
          (project_out): Conv2d(128, 32, kernel_size=(1, 1), stride=(1, 1))
          (act): GELU(approximate='none')
        )
      )
      (1): VSSBlock(
        (norm): LayerNorm2d((32,), eps=1e-05, elementwise_affine=True)
        (op): SS2D(
          (out_norm): LayerNorm2d((32,), eps=1e-05, elementwise_affine=True)
          (in_proj): Linear2d(in_features=32, out_features=32, bias=False)
          (act): SiLU()
          (conv2d): Conv2d(32, 32, kernel_size=(3, 3), stride=(1, 1), padding=(1, 1), groups=32, bias=False)
          (out_act): Identity()
          (out_proj): Linear2d(in_features=32, out_features=32, bias=False)
          (dropout): Identity()
        )
        (drop_path): timm.DropPath(0)
        (norm2): LayerNorm2d((32,), eps=1e-05, elementwise_affine=True)
        (mlp): gdMlp(
          (project_in): Conv2d(32, 256, kernel_size=(1, 1), stride=(1, 1))
          (dwconv): Conv2d(256, 256, kernel_size=(3, 3), stride=(1, 1), padding=(1, 1), groups=256)
          (project_out): Conv2d(128, 32, kernel_size=(1, 1), stride=(1, 1))
          (act): GELU(approximate='none')
        )
      )
    )
    (1): Sequential(
      (0): VSSBlock(
        (norm): LayerNorm2d((64,), eps=1e-05, elementwise_affine=True)
        (op): SS2D(
          (out_norm): LayerNorm2d((64,), eps=1e-05, elementwise_affine=True)
          (in_proj): Linear2d(in_features=64, out_features=64, bias=False)
          (act): SiLU()
          (conv2d): Conv2d(64, 64, kernel_size=(3, 3), stride=(1, 1), padding=(1, 1), groups=64, bias=False)
          (out_act): Identity()
          (out_proj): Linear2d(in_features=64, out_features=64, bias=False)
          (dropout): Identity()
        )
        (drop_path): timm.DropPath(0)
        (norm2): LayerNorm2d((64,), eps=1e-05, elementwise_affine=True)
        (mlp): gdMlp(
          (project_in): Conv2d(64, 512, kernel_size=(1, 1), stride=(1, 1))
          (dwconv): Conv2d(512, 512, kernel_size=(3, 3), stride=(1, 1), padding=(1, 1), groups=512)
          (project_out): Conv2d(256, 64, kernel_size=(1, 1), stride=(1, 1))
          (act): GELU(approximate='none')
        )
      )
      (1): VSSBlock(
        (norm): LayerNorm2d((64,), eps=1e-05, elementwise_affine=True)
        (op): SS2D(
          (out_norm): LayerNorm2d((64,), eps=1e-05, elementwise_affine=True)
          (in_proj): Linear2d(in_features=64, out_features=64, bias=False)
          (act): SiLU()
          (conv2d): Conv2d(64, 64, kernel_size=(3, 3), stride=(1, 1), padding=(1, 1), groups=64, bias=False)
          (out_act): Identity()
          (out_proj): Linear2d(in_features=64, out_features=64, bias=False)
          (dropout): Identity()
        )
        (drop_path): timm.DropPath(0)
        (norm2): LayerNorm2d((64,), eps=1e-05, elementwise_affine=True)
        (mlp): gdMlp(
          (project_in): Conv2d(64, 512, kernel_size=(1, 1), stride=(1, 1))
          (dwconv): Conv2d(512, 512, kernel_size=(3, 3), stride=(1, 1), padding=(1, 1), groups=512)
          (project_out): Conv2d(256, 64, kernel_size=(1, 1), stride=(1, 1))
          (act): GELU(approximate='none')
        )
      )
    )
  )
  (branch2_bottleneck): Sequential(
    (0): VSSBlock(
      (norm): LayerNorm2d((128,), eps=1e-05, elementwise_affine=True)
      (op): SS2D(
        (out_norm): LayerNorm2d((128,), eps=1e-05, elementwise_affine=True)
        (in_proj): Linear2d(in_features=128, out_features=128, bias=False)
        (act): SiLU()
        (conv2d): Conv2d(128, 128, kernel_size=(3, 3), stride=(1, 1), padding=(1, 1), groups=128, bias=False)
        (out_act): Identity()
        (out_proj): Linear2d(in_features=128, out_features=128, bias=False)
        (dropout): Identity()
      )
      (drop_path): timm.DropPath(0)
      (norm2): LayerNorm2d((128,), eps=1e-05, elementwise_affine=True)
      (mlp): gdMlp(
        (project_in): Conv2d(128, 1024, kernel_size=(1, 1), stride=(1, 1))
        (dwconv): Conv2d(1024, 1024, kernel_size=(3, 3), stride=(1, 1), padding=(1, 1), groups=1024)
        (project_out): Conv2d(512, 128, kernel_size=(1, 1), stride=(1, 1))
        (act): GELU(approximate='none')
      )
    )
    (1): VSSBlock(
      (norm): LayerNorm2d((128,), eps=1e-05, elementwise_affine=True)
      (op): SS2D(
        (out_norm): LayerNorm2d((128,), eps=1e-05, elementwise_affine=True)
        (in_proj): Linear2d(in_features=128, out_features=128, bias=False)
        (act): SiLU()
        (conv2d): Conv2d(128, 128, kernel_size=(3, 3), stride=(1, 1), padding=(1, 1), groups=128, bias=False)
        (out_act): Identity()
        (out_proj): Linear2d(in_features=128, out_features=128, bias=False)
        (dropout): Identity()
      )
      (drop_path): timm.DropPath(0)
      (norm2): LayerNorm2d((128,), eps=1e-05, elementwise_affine=True)
      (mlp): gdMlp(
        (project_in): Conv2d(128, 1024, kernel_size=(1, 1), stride=(1, 1))
        (dwconv): Conv2d(1024, 1024, kernel_size=(3, 3), stride=(1, 1), padding=(1, 1), groups=1024)
        (project_out): Conv2d(512, 128, kernel_size=(1, 1), stride=(1, 1))
        (act): GELU(approximate='none')
      )
    )
  )
  (branch2_decoders): ModuleList(
    (0): ModuleDict(
      (up): ConvTranspose2d(128, 64, kernel_size=(2, 2), stride=(2, 2))
      (fuse): Conv2d(128, 64, kernel_size=(1, 1), stride=(1, 1), bias=False)
      (block): Sequential(
        (0): VSSBlock(
          (norm): LayerNorm2d((64,), eps=1e-05, elementwise_affine=True)
          (op): SS2D(
            (out_norm): LayerNorm2d((64,), eps=1e-05, elementwise_affine=True)
            (in_proj): Linear2d(in_features=64, out_features=64, bias=False)
            (act): SiLU()
            (conv2d): Conv2d(64, 64, kernel_size=(3, 3), stride=(1, 1), padding=(1, 1), groups=64, bias=False)
            (out_act): Identity()
            (out_proj): Linear2d(in_features=64, out_features=64, bias=False)
            (dropout): Identity()
          )
          (drop_path): timm.DropPath(0)
          (norm2): LayerNorm2d((64,), eps=1e-05, elementwise_affine=True)
          (mlp): gdMlp(
            (project_in): Conv2d(64, 512, kernel_size=(1, 1), stride=(1, 1))
            (dwconv): Conv2d(512, 512, kernel_size=(3, 3), stride=(1, 1), padding=(1, 1), groups=512)
            (project_out): Conv2d(256, 64, kernel_size=(1, 1), stride=(1, 1))
            (act): GELU(approximate='none')
          )
        )
        (1): VSSBlock(
          (norm): LayerNorm2d((64,), eps=1e-05, elementwise_affine=True)
          (op): SS2D(
            (out_norm): LayerNorm2d((64,), eps=1e-05, elementwise_affine=True)
            (in_proj): Linear2d(in_features=64, out_features=64, bias=False)
            (act): SiLU()
            (conv2d): Conv2d(64, 64, kernel_size=(3, 3), stride=(1, 1), padding=(1, 1), groups=64, bias=False)
            (out_act): Identity()
            (out_proj): Linear2d(in_features=64, out_features=64, bias=False)
            (dropout): Identity()
          )
          (drop_path): timm.DropPath(0)
          (norm2): LayerNorm2d((64,), eps=1e-05, elementwise_affine=True)
          (mlp): gdMlp(
            (project_in): Conv2d(64, 512, kernel_size=(1, 1), stride=(1, 1))
            (dwconv): Conv2d(512, 512, kernel_size=(3, 3), stride=(1, 1), padding=(1, 1), groups=512)
            (project_out): Conv2d(256, 64, kernel_size=(1, 1), stride=(1, 1))
            (act): GELU(approximate='none')
          )
        )
      )
    )
    (1): ModuleDict(
      (up): ConvTranspose2d(64, 32, kernel_size=(2, 2), stride=(2, 2))
      (fuse): Conv2d(64, 32, kernel_size=(1, 1), stride=(1, 1), bias=False)
      (block): Sequential(
        (0): VSSBlock(
          (norm): LayerNorm2d((32,), eps=1e-05, elementwise_affine=True)
          (op): SS2D(
            (out_norm): LayerNorm2d((32,), eps=1e-05, elementwise_affine=True)
            (in_proj): Linear2d(in_features=32, out_features=32, bias=False)
            (act): SiLU()
            (conv2d): Conv2d(32, 32, kernel_size=(3, 3), stride=(1, 1), padding=(1, 1), groups=32, bias=False)
            (out_act): Identity()
            (out_proj): Linear2d(in_features=32, out_features=32, bias=False)
            (dropout): Identity()
          )
          (drop_path): timm.DropPath(0)
          (norm2): LayerNorm2d((32,), eps=1e-05, elementwise_affine=True)
          (mlp): gdMlp(
            (project_in): Conv2d(32, 256, kernel_size=(1, 1), stride=(1, 1))
            (dwconv): Conv2d(256, 256, kernel_size=(3, 3), stride=(1, 1), padding=(1, 1), groups=256)
            (project_out): Conv2d(128, 32, kernel_size=(1, 1), stride=(1, 1))
            (act): GELU(approximate='none')
          )
        )
        (1): VSSBlock(
          (norm): LayerNorm2d((32,), eps=1e-05, elementwise_affine=True)
          (op): SS2D(
            (out_norm): LayerNorm2d((32,), eps=1e-05, elementwise_affine=True)
            (in_proj): Linear2d(in_features=32, out_features=32, bias=False)
            (act): SiLU()
            (conv2d): Conv2d(32, 32, kernel_size=(3, 3), stride=(1, 1), padding=(1, 1), groups=32, bias=False)
            (out_act): Identity()
            (out_proj): Linear2d(in_features=32, out_features=32, bias=False)
            (dropout): Identity()
          )
          (drop_path): timm.DropPath(0)
          (norm2): LayerNorm2d((32,), eps=1e-05, elementwise_affine=True)
          (mlp): gdMlp(
            (project_in): Conv2d(32, 256, kernel_size=(1, 1), stride=(1, 1))
            (dwconv): Conv2d(256, 256, kernel_size=(3, 3), stride=(1, 1), padding=(1, 1), groups=256)
            (project_out): Conv2d(128, 32, kernel_size=(1, 1), stride=(1, 1))
            (act): GELU(approximate='none')
          )
        )
      )
    )
  )
  (branch2_proj): Conv2d(32, 32, kernel_size=(3, 3), stride=(1, 1), padding=(1, 1))
  (branch2_down_layers): ModuleList(
    (0): Conv2d(32, 64, kernel_size=(4, 4), stride=(2, 2), padding=(1, 1), bias=False)
    (1): Conv2d(64, 128, kernel_size=(4, 4), stride=(2, 2), padding=(1, 1), bias=False)
  )
  (cross_attention): WindowedCrossAttention(
    (query): Conv2d(32, 32, kernel_size=(1, 1), stride=(1, 1))
    (key): Conv2d(32, 32, kernel_size=(1, 1), stride=(1, 1))
    (value): Conv2d(32, 32, kernel_size=(1, 1), stride=(1, 1))
    (out): Conv2d(32, 32, kernel_size=(1, 1), stride=(1, 1))
  )
  (refinement): Sequential(
    (0): Conv2d(64, 32, kernel_size=(3, 3), stride=(1, 1), padding=(1, 1))
    (1): ReLU(inplace=True)
    (2): Conv2d(32, 3, kernel_size=(3, 3), stride=(1, 1), padding=(1, 1))
  )
)
2024-12-09 12:26:12,326 INFO: Start training from epoch: 0, iter: 0
2024-12-09 12:26:45,517 INFO: [TwoBr..][epoch:  1, iter:     100, lr:(2.000e-04,2.000e-04,)] [eta: 1 day, 0:25:32, time (data): 0.332 (0.009)] l_pix: 1.7714e-01 l_percep: 2.7847e+00 
2024-12-09 12:27:15,779 INFO: [TwoBr..][epoch:  3, iter:     200, lr:(2.000e-04,2.000e-04,)] [eta: 1 day, 0:48:26, time (data): 0.317 (0.010)] l_pix: 1.5601e-01 l_percep: 2.6126e+00 
…
