…
2024-12-09 12:26:04,911 INFO: Training statistics:
	Number of train images: 485
	Dataset enlarge ratio: 1
	Batch size per gpu: 8
	World size (gpu number): 1
	Require iter number per epoch: 61
	Total epochs: 4919; iters: 300000.
2024-12-09 12:26:04,911 INFO: Dataset [Dataset_PairedImage_Mask] - ValSet is built.
2024-12-09 12:26:04,912 INFO: Number of val images/folders in ValSet: 15
2024-12-09 12:26:04,992 INFO: Network [TwoBranchVMUNet] is created.
2024-12-09 12:26:06,259 INFO: Loss [L1Loss] is created.
2024-12-09 12:26:07,616 INFO: Loss [PerceptualLoss] is created.
TwoBranchVMUNet(
  (last_act): Identity()
  (branch1_first_conv): Conv2d(2, 40, kernel_size=(3, 3), stride=(1, 1), padding=(1, 1))
  (branch1_encoders): ModuleList(
    (0): Sequential(
      (0): VSSBlock(
        (norm): LayerNorm2d((40,), eps=1e-05, elementwise_affine=True)
        (op): SS2D(
          (out_norm): LayerNorm2d((40,), eps=1e-05, elementwise_affine=True)
          (in_proj): Linear2d(in_features=40, out_features=40, bias=False)
          (act): SiLU()
          (conv2d): Conv2d(40, 40, kernel_size=(3, 3), stride=(1, 1), padding=(1, 1), groups=40, bias=False)
          (out_act): Identity()
          (out_proj): Linear2d(in_features=40, out_features=40, bias=False)
          (dropout): Identity()
        )
        (drop_path): timm.DropPath(0)
        (norm2): LayerNorm2d((40,), eps=1e-05, elementwise_affine=True)
        (mlp): gdMlp(
          (project_in): Conv2d(40, 320, kernel_size=(1, 1), stride=(1, 1))
          (dwconv): Conv2d(320, 320, kernel_size=(3, 3), stride=(1, 1), padding=(1, 1), groups=320)
          (project_out): Conv2d(160, 40, kernel_size=(1, 1), stride=(1, 1))
          (act): GELU(approximate='none')
        )
      )
      (1): VSSBlock(
        (norm): LayerNorm2d((40,), eps=1e-05, elementwise_affine=True)
        (op): SS2D(
          (out_norm): LayerNorm2d((40,), eps=1e-05, elementwise_affine=True)
          (in_proj): Linear2d(in_features=40, out_features=40, bias=False)
          (act): SiLU()
          (conv2d): Conv2d(40, 40, kernel_size=(3, 3), stride=(1, 1), padding=(1, 1), groups=40, bias=False)
          (out_act): Identity()
          (out_proj): Linear2d(in_features=40, out_features=40, bias=False)
          (dropout): Identity()
        )
        (drop_path): timm.DropPath(0)
        (norm2): LayerNorm2d((40,), eps=1e-05, elementwise_affine=True)
        (mlp): gdMlp(
          (project_in): Conv2d(40, 320, kernel_size=(1, 1), stride=(1, 1))
          (dwconv): Conv2d(320, 320, kernel_size=(3, 3), stride=(1, 1), padding=(1, 1), groups=320)
          (project_out): Conv2d(160, 40, kernel_size=(1, 1), stride=(1, 1))
          (act): GELU(approximate='none')
        )
      )
    )
    (1): Sequential(
      (0): VSSBlock(
        (norm): LayerNorm2d((80,), eps=1e-05, elementwise_affine=True)
        (op): SS2D(
          (out_norm): LayerNorm2d((80,), eps=1e-05, elementwise_affine=True)
          (in_proj): Linear2d(in_features=80, out_features=80, bias=False)
          (act): SiLU()
          (conv2d): Conv2d(80, 80, kernel_size=(3, 3), stride=(1, 1), padding=(1, 1), groups=80, bias=False)
          (out_act): Identity()
          (out_proj): Linear2d(in_features=80, out_features=80, bias=False)
          (dropout): Identity()
        )
        (drop_path): timm.DropPath(0)
        (norm2): LayerNorm2d((80,), eps=1e-05, elementwise_affine=True)
        (mlp): gdMlp(
          (project_in): Conv2d(80, 640, kernel_size=(1, 1), stride=(1, 1))
          (dwconv): Conv2d(640, 640, kernel_size=(3, 3), stride=(1, 1), padding=(1, 1), groups=640)
          (project_out): Conv2d(320, 80, kernel_size=(1, 1), stride=(1, 1))
          (act): GELU(approximate='none')
        )
      )
      (1): VSSBlock(
        (norm): LayerNorm2d((80,), eps=1e-05, elementwise_affine=True)
        (op): SS2D(
          (out_norm): LayerNorm2d((80,), eps=1e-05, elementwise_affine=True)
          (in_proj): Linear2d(in_features=80, out_features=80, bias=False)
          (act): SiLU()
          (conv2d): Conv2d(80, 80, kernel_size=(3, 3), stride=(1, 1), padding=(1, 1), groups=80, bias=False)
          (out_act): Identity()
          (out_proj): Linear2d(in_features=80, out_features=80, bias=False)
          (dropout): Identity()
        )
        (drop_path): timm.DropPath(0)
        (norm2): LayerNorm2d((80,), eps=1e-05, elementwise_affine=True)
        (mlp): gdMlp(
          (project_in): Conv2d(80, 640, kernel_size=(1, 1), stride=(1, 1))
          (dwconv): Conv2d(640, 640, kernel_size=(3, 3), stride=(1, 1), padding=(1, 1), groups=640)
          (project_out): Conv2d(320, 80, kernel_size=(1, 1), stride=(1, 1))
          (act): GELU(approximate='none')
        )
      )
    )
  )
  (branch1_bottleneck): Sequential(
    (0): VSSBlock(
      (norm): LayerNorm2d((160,), eps=1e-05, elementwise_affine=True)
      (op): SS2D(
        (out_norm): LayerNorm2d((160,), eps=1e-05, elementwise_affine=True)
        (in_proj): Linear2d(in_features=160, out_features=160, bias=False)
        (act): SiLU()
        (conv2d): Conv2d(160, 160, kernel_size=(3, 3), stride=(1, 1), padding=(1, 1), groups=160, bias=False)
        (out_act): Identity()
        (out_proj): Linear2d(in_features=160, out_features=160, bias=False)
        (dropout): Identity()
      )
      (drop_path): timm.DropPath(0)
      (norm2): LayerNorm2d((160,), eps=1e-05, elementwise_affine=True)
      (mlp): gdMlp(
        (project_in): Conv2d(160, 1280, kernel_size=(1, 1), stride=(1, 1))
        (dwconv): Conv2d(1280, 1280, kernel_size=(3, 3), stride=(1, 1), padding=(1, 1), groups=1280)
        (project_out): Conv2d(640, 160, kernel_size=(1, 1), stride=(1, 1))
        (act): GELU(approximate='none')
      )
    )
    (1): VSSBlock(
      (norm): LayerNorm2d((160,), eps=1e-05, elementwise_affine=True)
      (op): SS2D(
        (out_norm): LayerNorm2d((160,), eps=1e-05, elementwise_affine=True)
        (in_proj): Linear2d(in_features=160, out_features=160, bias=False)
        (act): SiLU()
        (conv2d): Conv2d(160, 160, kernel_size=(3, 3), stride=(1, 1), padding=(1, 1), groups=160, bias=False)
        (out_act): Identity()
        (out_proj): Linear2d(in_features=160, out_features=160, bias=False)
        (dropout): Identity()
      )
      (drop_path): timm.DropPath(0)
      (norm2): LayerNorm2d((160,), eps=1e-05, elementwise_affine=True)
      (mlp): gdMlp(
        (project_in): Conv2d(160, 1280, kernel_size=(1, 1), stride=(1, 1))
        (dwconv): Conv2d(1280, 1280, kernel_size=(3, 3), stride=(1, 1), padding=(1, 1), groups=1280)
        (project_out): Conv2d(640, 160, kernel_size=(1, 1), stride=(1, 1))
        (act): GELU(approximate='none')
      )
    )
  )
  (branch1_decoders): ModuleList(
    (0): ModuleDict(
      (up): ConvTranspose2d(160, 80, kernel_size=(2, 2), stride=(2, 2))
      (fuse): Conv2d(160, 80, kernel_size=(1, 1), stride=(1, 1), bias=False)
      (block): Sequential(
        (0): VSSBlock(
          (norm): LayerNorm2d((80,), eps=1e-05, elementwise_affine=True)
          (op): SS2D(
            (out_norm): LayerNorm2d((80,), eps=1e-05, elementwise_affine=True)
            (in_proj): Linear2d(in_features=80, out_features=80, bias=False)
            (act): SiLU()
            (conv2d): Conv2d(80, 80, kernel_size=(3, 3), stride=(1, 1), padding=(1, 1), groups=80, bias=False)
            (out_act): Identity()
            (out_proj): Linear2d(in_features=80, out_features=80, bias=False)
            (dropout): Identity()
          )
          (drop_path): timm.DropPath(0)
          (norm2): LayerNorm2d((80,), eps=1e-05, elementwise_affine=True)
          (mlp): gdMlp(
            (project_in): Conv2d(80, 640, kernel_size=(1, 1), stride=(1, 1))
            (dwconv): Conv2d(640, 640, kernel_size=(3, 3), stride=(1, 1), padding=(1, 1), groups=640)
            (project_out): Conv2d(320, 80, kernel_size=(1, 1), stride=(1, 1))
            (act): GELU(approximate='none')
          )
        )
        (1): VSSBlock(
          (norm): LayerNorm2d((80,), eps=1e-05, elementwise_affine=True)
          (op): SS2D(
            (out_norm): LayerNorm2d((80,), eps=1e-05, elementwise_affine=True)
            (in_proj): Linear2d(in_features=80, out_features=80, bias=False)
            (act): SiLU()
            (conv2d): Conv2d(80, 80, kernel_size=(3, 3), stride=(1, 1), padding=(1, 1), groups=80, bias=False)
            (out_act): Identity()
            (out_proj): Linear2d(in_features=80, out_features=80, bias=False)
            (dropout): Identity()
          )
          (drop_path): timm.DropPath(0)
          (norm2): LayerNorm2d((80,), eps=1e-05, elementwise_affine=True)
          (mlp): gdMlp(
            (project_in): Conv2d(80, 640, kernel_size=(1, 1), stride=(1, 1))
            (dwconv): Conv2d(640, 640, kernel_size=(3, 3), stride=(1, 1), padding=(1, 1), groups=640)
            (project_out): Conv2d(320, 80, kernel_size=(1, 1), stride=(1, 1))
            (act): GELU(approximate='none')
          )
        )
      )
    )
    (1): ModuleDict(
      (up): ConvTranspose2d(80, 40, kernel_size=(2, 2), stride=(2, 2))
      (fuse): Conv2d(80, 40, kernel_size=(1, 1), stride=(1, 1), bias=False)
      (block): Sequential(
        (0): VSSBlock(
          (norm): LayerNorm2d((40,), eps=1e-05, elementwise_affine=True)
          (op): SS2D(
            (out_norm): LayerNorm2d((40,), eps=1e-05, elementwise_affine=True)
            (in_proj): Linear2d(in_features=40, out_features=40, bias=False)
            (act): SiLU()
            (conv2d): Conv2d(40, 40, kernel_size=(3, 3), stride=(1, 1), padding=(1, 1), groups=40, bias=False)
            (out_act): Identity()
            (out_proj): Linear2d(in_features=40, out_features=40, bias=False)
            (dropout): Identity()
          )
          (drop_path): timm.DropPath(0)
          (norm2): LayerNorm2d((40,), eps=1e-05, elementwise_affine=True)
          (mlp): gdMlp(
            (project_in): Conv2d(40, 320, kernel_size=(1, 1), stride=(1, 1))
            (dwconv): Conv2d(320, 320, kernel_size=(3, 3), stride=(1, 1), padding=(1, 1), groups=320)
            (project_out): Conv2d(160, 40, kernel_size=(1, 1), stride=(1, 1))
            (act): GELU(approximate='none')
          )
        )
        (1): VSSBlock(
          (norm): LayerNorm2d((40,), eps=1e-05, elementwise_affine=True)
          (op): SS2D(
            (out_norm): LayerNorm2d((40,), eps=1e-05, elementwise_affine=True)
            (in_proj): Linear2d(in_features=40, out_features=40, bias=False)
            (act): SiLU()
            (conv2d): Conv2d(40, 40, kernel_size=(3, 3), stride=(1, 1), padding=(1, 1), groups=40, bias=False)
            (out_act): Identity()
            (out_proj): Linear2d(in_features=40, out_features=40, bias=False)
            (dropout): Identity()
          )
          (drop_path): timm.DropPath(0)
          (norm2): LayerNorm2d((40,), eps=1e-05, elementwise_affine=True)
          (mlp): gdMlp(
            (project_in): Conv2d(40, 320, kernel_size=(1, 1), stride=(1, 1))
            (dwconv): Conv2d(320, 320, kernel_size=(3, 3), stride=(1, 1), padding=(1, 1), groups=320)
            (project_out): Conv2d(160, 40, kernel_size=(1, 1), stride=(1, 1))
            (act): GELU(approximate='none')
          )
        )
      )
    )
  )
  (branch1_proj): Conv2d(40, 40, kernel_size=(3, 3), stride=(1, 1), padding=(1, 1))
  (branch1_down_layers): ModuleList(
    (0): Conv2d(40, 80, kernel_size=(4, 4), stride=(2, 2), padding=(1, 1), bias=False)
    (1): Conv2d(80, 160, kernel_size=(4, 4), stride=(2, 2), padding=(1, 1), bias=False)
  )
  (branch2_first_conv): Conv2d(1, 40, kernel_size=(3, 3), stride=(1, 1), padding=(1, 1))
  (branch2_encoders): ModuleList(
    (0): Sequential(
      (0): VSSBlock(
        (norm): LayerNorm2d((40,), eps=1e-05, elementwise_affine=True)
        (op): SS2D(
          (out_norm): LayerNorm2d((40,), eps=1e-05, elementwise_affine=True)
          (in_proj): Linear2d(in_features=40, out_features=40, bias=False)
          (act): SiLU()
          (conv2d): Conv2d(40, 40, kernel_size=(3, 3), stride=(1, 1), padding=(1, 1), groups=40, bias=False)
          (out_act): Identity()
          (out_proj): Linear2d(in_features=40, out_features=40, bias=False)
          (dropout): Identity()
        )
        (drop_path): timm.DropPath(0)
        (norm2): LayerNorm2d((40,), eps=1e-05, elementwise_affine=True)
        (mlp): gdMlp(
          (project_in): Conv2d(40, 320, kernel_size=(1, 1), stride=(1, 1))
          (dwconv): Conv2d(320, 320, kernel_size=(3, 3), stride=(1, 1), padding=(1, 1), groups=320)
          (project_out): Conv2d(160, 40, kernel_size=(1, 1), stride=(1, 1))
          (act): GELU(approximate='none')
        )
      )
      (1): VSSBlock(
        (norm): LayerNorm2d((40,), eps=1e-05, elementwise_affine=True)
        (op): SS2D(
          (out_norm): LayerNorm2d((40,), eps=1e-05, elementwise_affine=True)
          (in_proj): Linear2d(in_features=40, out_features=40, bias=False)
          (act): SiLU()
          (conv2d): Conv2d(40, 40, kernel_size=(3, 3), stride=(1, 1), padding=(1, 1), groups=40, bias=False)
          (out_act): Identity()
          (out_proj): Linear2d(in_features=40, out_features=40, bias=False)
          (dropout): Identity()
        )
        (drop_path): timm.DropPath(0)
        (norm2): LayerNorm2d((40,), eps=1e-05, elementwise_affine=True)
        (mlp): gdMlp(
          (project_in): Conv2d(40, 320, kernel_size=(1, 1), stride=(1, 1))
          (dwconv): Conv2d(320, 320, kernel_size=(3, 3), stride=(1, 1), padding=(1, 1), groups=320)
          (project_out): Conv2d(160, 40, kernel_size=(1, 1), stride=(1, 1))
          (act): GELU(approximate='none')
        )
      )
    )
    (1): Sequential(
      (0): VSSBlock(
        (norm): LayerNorm2d((80,), eps=1e-05, elementwise_affine=True)
        (op): SS2D(
          (out_norm): LayerNorm2d((80,), eps=1e-05, elementwise_affine=True)
          (in_proj): Linear2d(in_features=80, out_features=80, bias=False)
          (act): SiLU()
          (conv2d): Conv2d(80, 80, kernel_size=(3, 3), stride=(1, 1), padding=(1, 1), groups=80, bias=False)
          (out_act): Identity()
          (out_proj): Linear2d(in_features=80, out_features=80, bias=False)
          (dropout): Identity()
        )
        (drop_path): timm.DropPath(0)
        (norm2): LayerNorm2d((80,), eps=1e-05, elementwise_affine=True)
        (mlp): gdMlp(
          (project_in): Conv2d(80, 640, kernel_size=(1, 1), stride=(1, 1))
          (dwconv): Conv2d(640, 640, kernel_size=(3, 3), stride=(1, 1), padding=(1, 1), groups=640)
          (project_out): Conv2d(320, 80, kernel_size=(1, 1), stride=(1, 1))
          (act): GELU(approximate='none')
        )
      )
      (1): VSSBlock(
        (norm): LayerNorm2d((80,), eps=1e-05, elementwise_affine=True)
        (op): SS2D(
          (out_norm): LayerNorm2d((80,), eps=1e-05, elementwise_affine=True)
          (in_proj): Linear2d(in_features=80, out_features=80, bias=False)
          (act): SiLU()
          (conv2d): Conv2d(80, 80, kernel_size=(3, 3), stride=(1, 1), padding=(1, 1), groups=80, bias=False)
          (out_act): Identity()
          (out_proj): Linear2d(in_features=80, out_features=80, bias=False)
          (dropout): Identity()
        )
        (drop_path): timm.DropPath(0)
        (norm2): LayerNorm2d((80,), eps=1e-05, elementwise_affine=True)
        (mlp): gdMlp(
          (project_in): Conv2d(80, 640, kernel_size=(1, 1), stride=(1, 1))
          (dwconv): Conv2d(640, 640, kernel_size=(3, 3), stride=(1, 1), padding=(1, 1), groups=640)
          (project_out): Conv2d(320, 80, kernel_size=(1, 1), stride=(1, 1))
          (act): GELU(approximate='none')
        )
      )
    )
  )
  (branch2_bottleneck): Sequential(
    (0): VSSBlock(
      (norm): LayerNorm2d((160,), eps=1e-05, elementwise_affine=True)
      (op): SS2D(
        (out_norm): LayerNorm2d((160,), eps=1e-05, elementwise_affine=True)
        (in_proj): Linear2d(in_features=160, out_features=160, bias=False)
        (act): SiLU()
        (conv2d): Conv2d(160, 160, kernel_size=(3, 3), stride=(1, 1), padding=(1, 1), groups=160, bias=False)
        (out_act): Identity()
        (out_proj): Linear2d(in_features=160, out_features=160, bias=False)
        (dropout): Identity()
      )
      (drop_path): timm.DropPath(0)
      (norm2): LayerNorm2d((160,), eps=1e-05, elementwise_affine=True)
      (mlp): gdMlp(
        (project_in): Conv2d(160, 1280, kernel_size=(1, 1), stride=(1, 1))
        (dwconv): Conv2d(1280, 1280, kernel_size=(3, 3), stride=(1, 1), padding=(1, 1), groups=1280)
        (project_out): Conv2d(640, 160, kernel_size=(1, 1), stride=(1, 1))
        (act): GELU(approximate='none')
      )
    )
    (1): VSSBlock(
      (norm): LayerNorm2d((160,), eps=1e-05, elementwise_affine=True)
      (op): SS2D(
        (out_norm): LayerNorm2d((160,), eps=1e-05, elementwise_affine=True)
        (in_proj): Linear2d(in_features=160, out_features=160, bias=False)
        (act): SiLU()
        (conv2d): Conv2d(160, 160, kernel_size=(3, 3), stride=(1, 1), padding=(1, 1), groups=160, bias=False)
        (out_act): Identity()
        (out_proj): Linear2d(in_features=160, out_features=160, bias=False)
        (dropout): Identity()
      )
      (drop_path): timm.DropPath(0)
      (norm2): LayerNorm2d((160,), eps=1e-05, elementwise_affine=True)
      (mlp): gdMlp(
        (project_in): Conv2d(160, 1280, kernel_size=(1, 1), stride=(1, 1))
        (dwconv): Conv2d(1280, 1280, kernel_size=(3, 3), stride=(1, 1), padding=(1, 1), groups=1280)
        (project_out): Conv2d(640, 160, kernel_size=(1, 1), stride=(1, 1))
        (act): GELU(approximate='none')
      )
    )
  )
  (branch2_decoders): ModuleList(
    (0): ModuleDict(
      (up): ConvTranspose2d(160, 80, kernel_size=(2, 2), stride=(2, 2))
      (fuse): Conv2d(160, 80, kernel_size=(1, 1), stride=(1, 1), bias=False)
      (block): Sequential(
        (0): VSSBlock(
          (norm): LayerNorm2d((80,), eps=1e-05, elementwise_affine=True)
          (op): SS2D(
            (out_norm): LayerNorm2d((80,), eps=1e-05, elementwise_affine=True)
            (in_proj): Linear2d(in_features=80, out_features=80, bias=False)
            (act): SiLU()
            (conv2d): Conv2d(80, 80, kernel_size=(3, 3), stride=(1, 1), padding=(1, 1), groups=80, bias=False)
            (out_act): Identity()
            (out_proj): Linear2d(in_features=80, out_features=80, bias=False)
            (dropout): Identity()
          )
          (drop_path): timm.DropPath(0)
          (norm2): LayerNorm2d((80,), eps=1e-05, elementwise_affine=True)
          (mlp): gdMlp(
            (project_in): Conv2d(80, 640, kernel_size=(1, 1), stride=(1, 1))
            (dwconv): Conv2d(640, 640, kernel_size=(3, 3), stride=(1, 1), padding=(1, 1), groups=640)
            (project_out): Conv2d(320, 80, kernel_size=(1, 1), stride=(1, 1))
            (act): GELU(approximate='none')
          )
        )
        (1): VSSBlock(
          (norm): LayerNorm2d((80,), eps=1e-05, elementwise_affine=True)
          (op): SS2D(
            (out_norm): LayerNorm2d((80,), eps=1e-05, elementwise_affine=True)
            (in_proj): Linear2d(in_features=80, out_features=80, bias=False)
            (act): SiLU()
            (conv2d): Conv2d(80, 80, kernel_size=(3, 3), stride=(1, 1), padding=(1, 1), groups=80, bias=False)
            (out_act): Identity()
            (out_proj): Linear2d(in_features=80, out_features=80, bias=False)
            (dropout): Identity()
          )
          (drop_path): timm.DropPath(0)
          (norm2): LayerNorm2d((80,), eps=1e-05, elementwise_affine=True)
          (mlp): gdMlp(
            (project_in): Conv2d(80, 640, kernel_size=(1, 1), stride=(1, 1))
            (dwconv): Conv2d(640, 640, kernel_size=(3, 3), stride=(1, 1), padding=(1, 1), groups=640)
            (project_out): Conv2d(320, 80, kernel_size=(1, 1), stride=(1, 1))
            (act): GELU(approximate='none')
          )
        )
      )
    )
    (1): ModuleDict(
      (up): ConvTranspose2d(80, 40, kernel_size=(2, 2), stride=(2, 2))
      (fuse): Conv2d(80, 40, kernel_size=(1, 1), stride=(1, 1), bias=False)
      (block): Sequential(
        (0): VSSBlock(
          (norm): LayerNorm2d((40,), eps=1e-05, elementwise_affine=True)
          (op): SS2D(
            (out_norm): LayerNorm2d((40,), eps=1e-05, elementwise_affine=True)
            (in_proj): Linear2d(in_features=40, out_features=40, bias=False)
            (act): SiLU()
            (conv2d): Conv2d(40, 40, kernel_size=(3, 3), stride=(1, 1), padding=(1, 1), groups=40, bias=False)
            (out_act): Identity()
            (out_proj): Linear2d(in_features=40, out_features=40, bias=False)
            (dropout): Identity()
          )
          (drop_path): timm.DropPath(0)
          (norm2): LayerNorm2d((40,), eps=1e-05, elementwise_affine=True)
          (mlp): gdMlp(
            (project_in): Conv2d(40, 320, kernel_size=(1, 1), stride=(1, 1))
            (dwconv): Conv2d(320, 320, kernel_size=(3, 3), stride=(1, 1), padding=(1, 1), groups=320)
            (project_out): Conv2d(160, 40, kernel_size=(1, 1), stride=(1, 1))
            (act): GELU(approximate='none')
          )
        )
        (1): VSSBlock(
          (norm): LayerNorm2d((40,), eps=1e-05, elementwise_affine=True)
          (op): SS2D(
            (out_norm): LayerNorm2d((40,), eps=1e-05, elementwise_affine=True)
            (in_proj): Linear2d(in_features=40, out_features=40, bias=False)
            (act): SiLU()
            (conv2d): Conv2d(40, 40, kernel_size=(3, 3), stride=(1, 1), padding=(1, 1), groups=40, bias=False)
            (out_act): Identity()
            (out_proj): Linear2d(in_features=40, out_features=40, bias=False)
            (dropout): Identity()
          )
          (drop_path): timm.DropPath(0)
          (norm2): LayerNorm2d((40,), eps=1e-05, elementwise_affine=True)
          (mlp): gdMlp(
            (project_in): Conv2d(40, 320, kernel_size=(1, 1), stride=(1, 1))
            (dwconv): Conv2d(320, 320, kernel_size=(3, 3), stride=(1, 1), padding=(1, 1), groups=320)
            (project_out): Conv2d(160, 40, kernel_size=(1, 1), stride=(1, 1))
            (act): GELU(approximate='none')
          )
        )
      )
    )
  )
  (branch2_proj): Conv2d(40, 40, kernel_size=(3, 3), stride=(1, 1), padding=(1, 1))
  (branch2_down_layers): ModuleList(
    (0): Conv2d(40, 80, kernel_size=(4, 4), stride=(2, 2), padding=(1, 1), bias=False)
    (1): Conv2d(80, 160, kernel_size=(4, 4), stride=(2, 2), padding=(1, 1), bias=False)
  )
  (cross_attention): WindowedCrossAttention(
    (query): Conv2d(40, 40, kernel_size=(1, 1), stride=(1, 1))
    (key): Conv2d(40, 40, kernel_size=(1, 1), stride=(1, 1))
    (value): Conv2d(40, 40, kernel_size=(1, 1), stride=(1, 1))
    (out): Conv2d(40, 40, kernel_size=(1, 1), stride=(1, 1))
  )
  (refinement): Sequential(
    (0): Conv2d(80, 40, kernel_size=(3, 3), stride=(1, 1), padding=(1, 1))
    (1): ReLU(inplace=True)
    (2): Conv2d(40, 3, kernel_size=(3, 3), stride=(1, 1), padding=(1, 1))
  )
)
2024-12-09 12:26:07,798 INFO: Start training from epoch: 0, iter: 0
2024-12-09 12:26:45,250 INFO: [TwoBr..][epoch:  1, iter:     100, lr:(2.000e-04,2.000e-04,)] [eta: 1 day, 3:43:21, time (data): 0.374 (0.010)] l_pix: 1.8468e-01 l_percep: 2.7661e+00 
2024-12-09 12:27:19,402 INFO: [TwoBr..][epoch:  3, iter:     200, lr:(2.000e-04,2.000e-04,)] [eta: 1 day, 4:04:31, time (data): 0.358 (0.010)] l_pix: 1.4284e-01 l_percep: 2.6246e+00 
…
